data/model_layer/gru_model.pt (torch, 115951 bytes, 10 tensors)

start f4 [1, 64]
0	0xbd377568	-0.0447897
1	0x3de052ea	0.109533146
2	0xbe675467	-0.2259079
3	0xbd54ff75	-0.052001435
4	0x3d03761a	0.032095052
5	0xbd370da5	-0.044690747
6	0x3e08f1a1	0.13373424
7	0x3d539a8d	0.051661063
8	0x3e422169	0.18958057
9	0x3c8bff8e	0.017089631
10	0x3db4ea63	0.08833768
11	0xbe43229f	-0.19056176
12	0xbced838d	-0.028993392
13	0x3e02e4ce	0.12782595
14	0xbd4c9624	-0.049947873
15	0xbd5093e3	-0.050922286
16	0x3c611d90	0.013739958
17	0x3de82bff	0.113365166
18	0x3bf94bbf	0.0076079066
19	0xbd750ed2	-0.059828587
20	0xbd9323c1	-0.07184554
21	0xbc37e88d	-0.011224878
22	0xbdedfa20	-0.11619973
23	0xbc553fc8	-0.013015695
24	0x3d274d3d	0.040845145
25	0xbde2738f	-0.11057197
26	0x3d45546e	0.04817622
27	0xbde96bc0	-0.11397505
28	0x3e0b7b08	0.13621151
29	0x3d953169	0.07284815
30	0xbd47efba	-0.048812605
31	0x3df2f246	0.11862616
32	0x3912484f	0.00013950582
33	0x3e8ed3fc	0.27896106
34	0xbd96a9d0	-0.07356608
35	0xbe19e0d4	-0.15027171
36	0xbd814046	-0.06311087
37	0x3cc1db8a	0.023664255
38	0xbd2c04e6	-0.04199686
39	0xbd632b1e	-0.05546104
40	0x3e2efeb9	0.17089356
41	0xbe331372	-0.17487887
42	0xbc2dd465	-0.010609721
43	0xbe3f0900	-0.18655777
44	0xbae07923	-0.0017125945
45	0xbca6c91c	-0.020359568
46	0x3e6a2d62	0.22868875
47	0x3de17e24	0.110103875
48	0xbe2dde4d	-0.16979332
49	0x3ebf8f2f	0.37413928
50	0x3d00a747	0.031409528
51	0x3d5c6473	0.053806733
52	0xbdd0a0b8	-0.10186905
53	0xbcb07c36	-0.021543603
54	0xbdde1c94	-0.108452946
55	0x3d8505fd	0.06495283
56	0xbe3f64c2	-0.1869078
57	0xbe0bc59b	-0.13649599
58	0xbde98fc4	-0.11404374
59	0xbcdc8218	-0.026917502
60	0xbd83f501	-0.06443215
61	0xbc9e29fd	-0.019307131
62	0x3dc74fdc	0.09732029
63	0xbdb2596e	-0.087084636

wte.weight f4 [27, 64]
0	0x3f88b570	1.068037
1	0xbf368a0e	-0.71304405
2	0xbec9336c	-0.39297044
3	0x3f885770	1.0651684
4	0x3ee0fdd8	0.43943667
5	0xbf27e9b3	-0.6559097
6	0xbf18d331	-0.5969725
7	0xbe66ca48	-0.22538102
8	0x3f40fd4a	0.7538649
9	0xbf0caad4	-0.54948163
10	0x3f7ec20a	0.9951483
11	0xbf5db5b9	-0.8660541
12	0xbeb2b2e0	-0.34902096
13	0x3f1b52f0	0.6067343
14	0x3e3f6584	0.18691069
15	0xbe392178	-0.18079174
16	0x3e66a28e	0.22522947
17	0xbeabef4f	-0.33581015
18	0xbfdd8624	-1.7306561
19	0x3fc04a26	1.5022628
20	0xbe1377ad	-0.14401121
21	0xbf4e9c69	-0.8070741
22	0xbf54b1c9	-0.8308378
23	0xbfbb98ad	-1.4655968
24	0x3e061f27	0.13097821
25	0x3ecd668b	0.40117297
26	0xbdd76feb	-0.105193935
27	0xbed70775	-0.41997877
28	0xbf03d02a	-0.5148951
29	0xbead2e7e	-0.33824533
30	0xbd245e3c	-0.04012893
31	0xbf464f87	-0.774651
32	0xbe741442	-0.23835853
33	0xbea5311c	-0.3226403
34	0x3fabaf3e	1.3412855
35	0x3f49029e	0.7851962
36	0x3f8bb106	1.0913398
37	0x3f1df0cd	0.6169556
38	0xbf807eb4	-1.0038667
39	0xbeba5cbe	-0.36398882
40	0x3f3db90c	0.74110484
41	0x3ef2f347	0.4745123
42	0xbf8fafd4	-1.1225533
43	0x3ec7a4b5	0.3899285
44	0x3bb5648d	0.005535668
45	0xbf8e0c80	-1.1097565
46	0x3eb3208d	0.34985772
47	0xbedd6269	-0.43239143
48	0xbf0c4b3a	-0.54802287
49	0xbf36bd80	-0.71382904
50	0xbe607d98	-0.2192291
51	0xbd570e7c	-0.052504048
52	0xbdacf1bd	-0.084445454
53	0x3e27aa40	0.16373539
54	0xbe4297eb	-0.19003265
55	0x3f0f9852	0.560918
56	0xbfb3300f	-1.3999041
57	0x3f2122d3	0.6294376
58	0xbf4f11d0	-0.80886555
59	0x3b9de667	0.004818726
60	0x3d4ebc01	0.050472263
61	0x3c5853c4	0.013203565
62	0x3f60327b	0.8757703
63	0xbe7e3ba5	-0.2482744
64	0x3f201bc8	0.6254239
65	0x400c8f93	2.196263
66	0x3fb25d67	1.3934754
67	0x3e4eb53f	0.20186327
68	0xbf130337	-0.5742678
69	0x3e389655	0.18026097
70	0xbeddd822	-0.4332896
71	0x3e43dc20	0.1912694
72	0x3e525caf	0.20543168
73	0x3f68bb62	0.90910923
74	0x3ee130ca	0.43982536
75	0x3ea0021f	0.31251618
76	0x3f812f73	1.0092605
77	0xbf614998	-0.8800292
78	0x3f36fee6	0.71482694
79	0x3f28e92b	0.65980786
80	0xbdb2a2ca	-0.08722456
81	0x3ecebf3b	0.40380272
82	0xbe1d7a7f	-0.1537876
83	0x3eefe0b2	0.46851116
84	0xbc0594c4	-0.008153144
85	0x3f0dbf38	0.553699
86	0x3dbcaa3f	0.09212159
87	0x3f99a187	1.2002419
88	0xbe3c3f44	-0.18383509
89	0x3ee3cd95	0.44492784
90	0x3e24822f	0.16065286
91	0x3f18df03	0.5971529
92	0xbe3555a4	-0.1770845
93	0xbea3856b	-0.31937727
94	0xbfdc836f	-1.722761
95	0xbf22bc50	-0.6356859
96	0x3f9d14df	1.2271994
97	0xbf1c9dec	-0.6117847
98	0x3e0b80b1	0.1362331
99	0xbe16a12d	-0.14709921
100	0xbf941b7d	-1.1570889
101	0x3f932f8a	1.1498883
102	0xbe270351	-0.16309859
103	0xbf8a683b	-1.0813059
104	0x3d6107a6	0.054938935
105	0xbf8ca536	-1.0987918
106	0x3e91c7f1	0.28472856
107	0x3f28dbd6	0.65960443
108	0x3ff0c7c4	1.8810964
109	0x3fb20862	1.3908808
110	0x3faa67fa	1.3312981
111	0x3dffce9b	0.12490579
112	0xbf2bb53e	-0.6707343
113	0x3e97e185	0.29664245
114	0xbd35542f	-0.044269737
115	0x3f1a3308	0.6023412
116	0xbbbf4c19	-0.005837929
117	0xbf834f3a	-1.0258553
118	0x3ea7802e	0.3271498
119	0x3ecb48af	0.3970389
120	0xbe766b12	-0.24064282
121	0x3f842759	1.0324508
122	0xbed989c1	-0.4248791
123	0xbe54f3cc	-0.20796126
124	0xbde401b9	-0.11133141
125	0xbe9b2d1d	-0.30307856
126	0xbf19ac3a	-0.6002842
127	0xbf4fa9eb	-0.8111865
128	0x3ed198b8	0.40936828
129	0x3f8f367d	1.1188504
130	0xbead3b98	-0.3383453
131	0xbf3e2592	-0.7427608
132	0x3f3305b8	0.699306
133	0xbe64efe9	-0.22357143
134	0x3f918db4	1.1371369
135	0x3f2619b8	0.64882994
136	0x3e4dedc3	0.2011023
137	0xbf85e358	-1.0460005
138	0x3d816c93	0.06319537
139	0xbf314cae	-0.6925763
140	0xbf9716c0	-1.1803818
141	0x3fb1a83d	1.3879467
142	0x3d9ba0e2	0.07599045
143	0x3f74b423	0.95587367
144	0x3fad75ad	1.3551537
145	0xbeaed081	-0.3414345
146	0x3f6475de	0.8924235
147	0x3fd0dfbb	1.6318277
148	0x3e2d9d4c	0.16954535
149	0xbf237371	-0.63848025
150	0x3f432e0d	0.7624214
151	0x3dd3f625	0.10349683
152	0x3f66196e	0.8988255
153	0xbe1907b7	-0.14944349
154	0x3f8d3681	1.1032258
155	0x40071047	2.1103685
156	0x3de53cbd	0.111932255
157	0x3e43df93	0.19128256
158	0xbecd8ad5	-0.40144983
159	0xbf59dd9b	-0.8510377
160	0xbf0d4740	-0.55186844
161	0x3ea2945f	0.31753823
162	0x3e80b53e	0.25138277
163	0xbe9cf567	-0.30655977
164	0xbf0a97fe	-0.5413817
165	0xbf371976	-0.71523225
166	0xbee9460f	-0.45561263
167	0x3e984845	0.29742637
168	0x3e9a2be1	0.30111602
169	0x3ecd0568	0.40043187
170	0x3dc8caed	0.0980433
171	0xbfa05180	-1.2524872
172	0xbfadfd0a	-1.3592846
173	0xbe4e1f51	-0.20129134
174	0xbba16d4c	-0.0049263593
175	0xbe04bc2f	-0.12962411
176	0xbf6d5d54	-0.9272053
177	0x3e770cb1	0.24125935
178	0xbfce5a66	-1.6121337
179	0xbf50a61c	-0.8150346
180	0x400706dd	2.109794
181	0xbf02324a	-0.50857985
182	0x3e307ea3	0.17235808
183	0xbdc5f3c8	-0.09665638
184	0xbf1d3457	-0.6140799
185	0xbdaa3f43	-0.083128475
186	0x3f1666c0	0.58750534
187	0xbfaafa4b	-1.3357633
188	0xbe601633	-0.21883468
189	0x3eb9f9b7	0.3632333
190	0xbddb1e31	-0.10699118
191	0x3ee7a100	0.4524002
192	0x3d52c078	0.051453084
193	0x3ed9ba8f	0.42525145
194	0x3fcdfa7b	1.6092066
195	0xbfd090a3	-1.629414
196	0x3f8341aa	1.0254414
197	0x3eb3da9d	0.35127726
198	0x3de088c9	0.1096359
199	0xbf9a05d4	-1.2033029
200	0xbebc0cd5	-0.3672854
201	0xbe4cac40	-0.19987583
202	0x3f60311f	0.8757495
203	0x3f1f7568	0.6228852
204	0x3fac2b29	1.3450671
205	0x3e499552	0.19685867
206	0xbff96fa6	-1.9487197
207	0x3f046c0e	0.5172738
208	0x3f235e4f	0.6381578
209	0x3e72cb12	0.23710278
210	0xbd268856	-0.040657364
211	0x3ec7fb08	0.3905871
212	0x3ea0d40f	0.31411788
213	0x3f8562be	1.0420759
214	0xba03ce4f	-0.0005027996
215	0xbfaa4c32	-1.3304503
216	0xbd938945	-0.072039165
217	0x3f87b472	1.0601943
218	0x3f8104d2	1.0079596
219	0xbeaf0a3d	-0.341875
220	0x3f24a769	0.6431795
221	0xbea2714e	-0.3172707
222	0x3efbfe64	0.49217522
223	0x3f3c1385	0.73467284
224	0x3de87202	0.1134987
225	0x3ec7cfe6	0.390258
226	0x3e7598c9	0.23984064
227	0x3ea8a6af	0.3293967
228	0xbda8a382	-0.08234312
229	0xbf3fbbdb	-0.7489602
230	0xbf326dab	-0.6969859
231	0x3d8117ff	0.06303405
232	0xbe71545e	-0.2356734
233	0x3dcea189	0.10089404
234	0x3f697843	0.9119913
235	0x3f297c73	0.6620552
236	0x3edbaf64	0.4290725
237	0x3db6bcfd	0.089227654
238	0x3f8166e7	1.0109528
239	0xbf1fc3d3	-0.6240818
240	0xbf3c995b	-0.736715
241	0xbe82533f	-0.25454137
242	0x3f55cfda	0.8352028
243	0xbe0cb1fc	-0.1373977
244	0x3e23bf67	0.15990983
245	0x3dbc47e2	0.09193398
246	0xbeb277f9	-0.34857157
247	0x3f8cc678	1.0998068
248	0x3f0527d6	0.5201391
249	0x3e9c96c0	0.30583763
250	0xbeadf76d	-0.33977833
251	0xc006ed71	-2.1082423
252	0x3f0aafb5	0.5417436
253	0x3f86a182	1.0518038
254	0xbee2dbe5	-0.4430839
255	0x3c750771	0.014955387

cell.xh_to_z.weight f4 [64, 128]
0	0x3cbf40b1	0.023346277
1	0xbcf91e03	-0.030409819
2	0x3eef0d41	0.466898
3	0xbe1a372a	-0.15060106
4	0xbe99804b	-0.29980692
5	0x3e4743fb	0.19459526
6	0x3e3c7b26	0.18406352
7	0x3c85ba83	0.016324287
8	0xbdc95706	-0.098310515
9	0xbe1279bf	-0.14304255
10	0xbd5d5f82	-0.05404616
11	0xbd248127	-0.04016223
12	0x3cdac487	0.02670504
13	0x3e24765c	0.16060776
14	0x3e0557f7	0.13021837
15	0x3cb26a2a	0.021779139
16	0x3e5d17c1	0.21591093
17	0x3ea4d92f	0.32196948
18	0x3d6f4fff	0.0584259
19	0x3b4aba99	0.0030933975
20	0xbe0374e2	-0.12837556
21	0x3e59c271	0.2126558
22	0xba83ebc1	-0.0010064767
23	0x3c62e7c0	0.013849199
24	0x3e070169	0.13184132
25	0x3f3ee37e	0.74565876
26	0x3da53c72	0.0806817
27	0xbda5b364	-0.08090857
28	0xbeb1f28d	-0.34755364
29	0xbe9b33d0	-0.30312967
30	0x3dd74eac	0.10513052
31	0xbdbe6335	-0.09296266
32	0x3bc41cfe	0.0059849015
33	0x3dd7136c	0.10501751
34	0xbe0b1c73	-0.13585071
35	0xbecd7233	-0.4012619
36	0xbe8112c5	-0.25209633
37	0x3dcb1ac3	0.09917214
38	0x3b77edef	0.0037831028
39	0x3e919b74	0.28438914
40	0x3deb7f63	0.114989065
41	0x3e4cde9e	0.20006797
42	0xbec0c301	-0.37648776
43	0x3dde3620	0.10850167
44	0x3efaa038	0.48950362
45	0x3ea94da6	0.33067054
46	0x3d9a223c	0.07526061
47	0xbcaebcdc	-0.02133029
48	0xbde9bc72	-0.11412896
49	0x3e7ec813	0.2488101
50	0xbdc58e7a	-0.09646316
51	0x3d8636da	0.06553431
52	0x3f02c416	0.51080453
53	0x3c4d6831	0.012537048
54	0xbb5ec112	-0.003398959
55	0x3e28571c	0.1643948
56	0x3ecf7ed8	0.40526462
57	0xbe4ad8fd	-0.19809337
58	0x3ebbe237	0.36696026
59	0x3d6d9b96	0.058009706
60	0x3e28ca23	0.16483359
61	0x3e59ce3d	0.2127008
62	0x3ca11336	0.01966248
63	0xbd16e0a4	-0.036835328
64	0x3e9f72d6	0.311423
65	0xbf36f521	-0.7146779
66	0xbd0a29f0	-0.0337314
67	0xbdd4b01e	-0.10385154
68	0x3ec7cc97	0.39023277
69	0xbc943265	-0.018090436
70	0xbe86c479	-0.26321772
71	0x3e9c1e49	0.30491856
72	0x3e2991c0	0.16559505
73	0x3f049b4c	0.51799464
74	0xbebda013	-0.3703619
75	0x3ceeefa0	0.029166996
76	0xbed93223	-0.42421064
77	0xbea3140b	-0.3185123
78	0xbe560cce	-0.20903322
79	0xbe6fed81	-0.23430444
80	0xbed4029d	-0.41408244
81	0x3c4ea95c	0.012613621
82	0x3d91ed85	0.071253814
83	0x3ed3adf2	0.41343647
84	0x3ec23458	0.3793056
85	0xbf40a3c6	-0.752499
86	0xbd56cf15	-0.052443583
87	0x3f69a3ba	0.9126545
88	0xbf369abe	-0.7132987
89	0x3d12c9c2	0.035836942
90	0x3bde6202	0.006786586
91	0x3dc726b0	0.09724176
92	0xbe2a57ed	-0.16635104
93	0xbec62192	-0.38697487
94	0x3e38f837	0.18063436
95	0x3dc1bb29	0.09459526
96	0x3e941e7b	0.28929505
97	0xbd8ecdd8	-0.06972855
98	0x3dd77c53	0.1052176
99	0xbe75fce7	-0.24022256
100	0xbd377aa4	-0.044794694
101	0x3e7bfc79	0.2460803
102	0xbdd82c32	-0.105553046
103	0x3e1b77a9	0.15182365
104	0x3e914e0e	0.28379864
105	0xbef3facf	-0.4765229
106	0xbe4af11e	-0.19818541
107	0xbdcbc0af	-0.09948861
108	0xbd33b5a9	-0.043874417
109	0x3cb4d9c8	0.022076502
110	0xbdd24b30	-0.10268247
111	0x3d0fcdf2	0.035108514
112	0x3c95c98a	0.018284578
113	0x3ec918c6	0.39276713
114	0x3e6e9a66	0.23301086
115	0x3d10e00d	0.03536992
116	0x3c8d8188	0.01727368
117	0x3d84e228	0.064884484
118	0x3e18c633	0.14919357
119	0xbe664059	-0.22485484
120	0x3e96f151	0.29480985
121	0xbe7b88b6	-0.2456387
122	0xbbe60ddb	-0.0070206947
123	0x3f3c1db7	0.7348284
124	0xbdb97a01	-0.090564735
125	0x3e80322c	0.25038278
126	0x3e651a16	0.22373232
127	0xbe9a131e	-0.3009271
128	0x3dfaf610	0.12253964
129	0xbdc196ca	-0.09452589
130	0xbe046078	-0.12927425
131	0x3dd0580c	0.101730436
132	0xbe4a33ac	-0.19746274
133	0x3dac95bf	0.08426999
134	0xbce63ffa	-0.028106678
135	0x3d8a1d15	0.06743828
136	0xbdfd65d4	-0.12372938
137	0x3dd235b6	0.10264151
138	0xbe87707c	-0.26453006
139	0xbeac848b	-0.33694872
140	0x3d8d4e99	0.06899757
141	0xbe8bae31	-0.27281335
142	0xbe3f7408	-0.18696606
143	0xbcddbe79	-0.027068364
144	0x3e5a5061	0.21319725
145	0xbe0a3050	-0.13494992
146	0x3dd24b5f	0.10268282
147	0xbd20d5a6	-0.03926625
148	0xbd0d5eb1	-0.034514133
149	0x3dbd411c	0.09240934
150	0x3e516a55	0.20450719
151	0xbcdc75f5	-0.026911715
152	0x3c730bab	0.014834325
153	0xbee8d6dc	-0.45476425
154	0x3ddbedc7	0.10738712
155	0xbd55cd30	-0.052197635
156	0xbdd69799	-0.10478134
157	0x3e9ec644	0.3101064
158	0x3bc6e83d	0.0060701654
159	0x3dcfe76b	0.10151561
160	0x3e088478	0.13331783
161	0xbe55801a	-0.20849648
162	0x3e7a09b0	0.24417758
163	0x3f2ff070	0.68726254
164	0x3d43b703	0.047781955
165	0x3de7d048	0.11319023
166	0xbdbcd8df	-0.092210524
167	0x3d2782cf	0.040896233
168	0x3cb6e23a	0.02232467
169	0xbda6527b	-0.08121201
170	0x3e2a0c3c	0.1660623
171	0xbea664d3	-0.32498798
172	0xbebab078	-0.3646276
173	0xbe5fe737	-0.21865545
174	0xbe203695	-0.15645821
175	0xbdaa3113	-0.083101414
176	0xbe44b203	-0.19208531
177	0xbe73c6c4	-0.23806292
178	0x3e91eb6f	0.28499934
179	0xbf1187c8	-0.5684781
180	0x3e94940b	0.29019198
181	0xbe3070b8	-0.17230499
182	0x3da9e8d5	0.08296362
183	0xbd20831e	-0.039187543
184	0x3e800732	0.2500549
185	0x3e5300e6	0.20605811
186	0x3d9a431c	0.07532331
187	0xbe76bb7e	-0.2409496
188	0xbdb8c715	-0.09022347
189	0x3e090cfb	0.13383858
190	0xbdb67d00	-0.089105606
191	0x3e731ab4	0.23740655
192	0xbef296cc	-0.47380674
193	0x3f18bb3f	0.59660715
194	0x3d816601	0.06318284
195	0x3eb8e214	0.36109984
196	0x3ee023fb	0.4377745
197	0xbeaf7f87	-0.34276983
198	0xbe1bf266	-0.15229186
199	0x3eb97369	0.36220863
200	0xbe52ab50	-0.20573163
201	0xbe8bef1c	-0.27330863
202	0xbdebea35	-0.11519281
203	0x3f2977b4	0.6619828
204	0xbd9ac32d	-0.07556758
205	0xbf3019d0	-0.68789387
206	0x3d23aa9a	0.03995762
207	0x3db325d4	0.087474495
208	0xbc873b02	-0.01650763
209	0x3eaf9a5d	0.34297457
210	0x3e64b2ec	0.22333878
211	0x3e22b00b	0.15887468
212	0x3df5d07d	0.120026566
213	0x3d5b97f1	0.0536117
214	0xbf6a5eac	-0.9155071
215	0x3e449ee1	0.19201232
216	0xbdeea224	-0.116520196
217	0xbea00e58	-0.31260943
218	0xbd383c13	-0.044979166
219	0x3c59c594	0.013291735
220	0xbed23381	-0.4105492
221	0x3e4d5f0e	0.20055792
222	0x3eb41e66	0.35179442
223	0xbebfd80c	-0.37469518
224	0x3e581615	0.21102174
225	0xbe1e0b5a	-0.15434018
226	0xbdb84ea2	-0.08999373
227	0xbf006cde	-0.5016612
228	0x3b7b7fb7	0.0038375685
229	0xbc12214e	-0.008919073
230	0xbd2fe1d4	-0.042939976
231	0xbeb36dfc	-0.3504485
232	0x3d50c3ad	0.05096786
233	0x3f387a06	0.72061193
234	0xbe0b9c73	-0.136339
235	0xbe4ad39c	-0.19807285
236	0xbe89859f	-0.26859757
237	0xbe190556	-0.14943442
238	0x3b7ecb76	0.0038878596
239	0x3ead7ac5	0.33882728
240	0xbedd36c8	-0.43205857
241	0x3ccfb676	0.025355559
242	0xbd2b14f9	-0.041768048
243	0xbe67be28	-0.22631133
244	0xbe7a571c	-0.24447292
245	0xbcb5a3b7	-0.022172792
246	0xbdb62c04	-0.08895114
247	0xbdd0d3c4	-0.10196641
248	0x3e9d173e	0.30681795
249	0xbe4cf9f8	-0.2001723
250	0x3e837cb3	0.25681075
251	0xbe4809ef	-0.1953504
252	0x3d9ce88e	0.07661544
253	0xbdae2371	-0.08502854
254	0xbd59bc7b	-0.053158265
255	0xbc1d3668	-0.009595491

cell.xh_to_z.bias f4 [64]
0	0x3e6993e7	0.22810327
1	0x3e09b69e	0.13448569
2	0x3eacb92d	0.33735028
3	0x3e850d86	0.2598688
4	0x3ee0572d	0.4381651
5	0x3ec5a8a5	0.38605228
6	0x3eea846e	0.4580416
7	0x3e49f48a	0.1972219
8	0x3ebcc863	0.36871633
9	0x3e59bf74	0.2126444
10	0x3ec9b2f7	0.39394352
11	0x3ea0f745	0.31438652
12	0x3e188970	0.14896178
13	0x3ec6105f	0.38684365
14	0x3edc4898	0.43024135
15	0x3ed69962	0.41913897
16	0x3e9cb1ae	0.3060431
17	0x3e979bc2	0.2961102
18	0x3ec849b4	0.3911873
19	0x3ece2e4c	0.40269697
20	0x3ea2266c	0.3166994
21	0x3edc3b9c	0.43014228
22	0x3e542db0	0.20720553
23	0x3ec7c7c6	0.39019603
24	0x3eaffdf8	0.3437345
25	0x3e1f551c	0.1555981
26	0x3ee99ccc	0.4562744
27	0x3ec01de0	0.37522793
28	0x3ecea0e0	0.40357113
29	0x3e8798f2	0.26483876
30	0x3ec59418	0.3858955
31	0x3ee8fdb9	0.45506075
32	0x3e86faf0	0.26363325
33	0x3ea2cb55	0.31795755
34	0x3ed6318b	0.41834673
35	0x3e1a09c1	0.15042783
36	0x3efcc5ed	0.49369755
37	0x3e333db3	0.17504005
38	0x3f0d8cda	0.5529305
39	0x3efef2bb	0.49794564
40	0x3e65517b	0.22394364
41	0x3e4812a4	0.19538361
42	0x3dcc13fe	0.09964751
43	0x3ece22af	0.40260836
44	0x3e88803b	0.26660332
45	0x3e8c9d98	0.27463984
46	0x3ec88b97	0.39169
47	0x3ead52ed	0.3385233
48	0x3e892d9b	0.26792607
49	0xbd2ece09	-0.04267696
50	0x3ed20fab	0.4102758
51	0x3e4e56be	0.20150277
52	0x3ec17680	0.3778572
53	0x3ea931bf	0.33045766
54	0x3ebc75db	0.36808667
55	0x3f00cb2c	0.50310016
56	0x3eb58d38	0.35459304
57	0x3e78239b	0.24232332
58	0x3e920076	0.28515977
59	0x3e64ba7e	0.22336766
60	0x3e846cfa	0.25864393
61	0x3eadd784	0.33953488
62	0x3e075363	0.13215403
63	0x3ea45a6b	0.32100233

cell.xh_to_r.weight f4 [64, 128]
0	0x3e2e1d63	0.17003398
1	0x3ed322c1	0.41237453
2	0x3dc8613e	0.097841725
3	0xbcfc88d8	-0.030826971
4	0xbe76aa81	-0.2408848
5	0xbd7b62c2	-0.06137348
6	0xbe83e983	-0.25764093
7	0x3df4fb4e	0.11961995
8	0x3ec38b4e	0.3819222
9	0x3e91861a	0.28422624
10	0x3e718ec8	0.23589623
11	0xbee88503	-0.4541398
12	0x3d827d78	0.063715875
13	0xbeac3794	-0.33636153
14	0xbf182045	-0.5942424
15	0x3cbaaed1	0.022788437
16	0xbe48b516	-0.19600329
17	0xbd8694fc	-0.06571385
18	0x3df7227c	0.12067124
19	0xbcd2fdbe	-0.02575576
20	0x3e25c1d5	0.16187222
21	0xbddd4370	-0.10803878
22	0x3e2b6a4e	0.16739771
23	0xbdfd3a4c	-0.12364635
24	0x3e267927	0.16257153
25	0xbda9c88e	-0.08290206
26	0x3dc04a8b	0.09389218
27	0xbd38a837	-0.045082297
28	0x3eb134fe	0.34610742
29	0x3dfde334	0.12396851
30	0xbe8c77d2	-0.27435166
31	0xbe4d58ed	-0.20053454
32	0x3ed2df8a	0.41186172
33	0x3d13a7f2	0.036048837
34	0xbd461c35	-0.048366744
35	0x3f1cb5c2	0.6121484
36	0xbeb3fd94	-0.35154402
37	0xbe1475a8	-0.14498007
38	0x3dc35163	0.09537008
39	0xbedf44ce	-0.4360718
40	0x3e56d69c	0.20980304
41	0xbe3afa71	-0.18259598
42	0x3e979dad	0.29612485
43	0xbf153934	-0.5829041
44	0x3e7301fb	0.23731224
45	0xbec86f5f	-0.3914747
46	0x3e49d671	0.19710709
47	0xbe139d84	-0.14415556
48	0xbe700bf2	-0.23442057
49	0xbe9fca51	-0.31209043
50	0x3cf8a4f8	0.0303521
51	0x3dd62d64	0.10457876
52	0x3e697c7f	0.22801398
53	0xbbac505f	-0.0052586044
54	0x3ea17916	0.31537694
55	0xbea0f742	-0.31438643
56	0x3ec12836	0.3772599
57	0x3ec89c3e	0.39181703
58	0xbd71e1af	-0.05905312
59	0x3e0b0069	0.13574375
60	0xbe866f59	-0.26256827
61	0x3e8a388d	0.2699627
62	0x3d181974	0.03713365
63	0x3e4291af	0.19000886
64	0x3f1f4211	0.62210184
65	0x3d9c9476	0.07645504
66	0x3f4a37c0	0.7899132
67	0xbd9a829a	-0.075444415
68	0x3e388e19	0.18022956
69	0xbf275476	-0.6536325
70	0x3bfe3d63	0.0077587827
71	0x3ebe7a24	0.3720256
72	0x3e08efbe	0.13372704
73	0x3e99422c	0.29933298
74	0xbdfea23e	-0.12433289
75	0xbf0955f1	-0.5364676
76	0xbf30cc3f	-0.69061655
77	0x3ec99056	0.39367932
78	0xbe88ad7c	-0.26694858
79	0x3cdfaeb8	0.027304992
80	0xbf885edf	-1.0653952
81	0xbf127c70	-0.57221127
82	0xbee8bca2	-0.45456415
83	0x3e66ca9b	0.22538225
84	0x3e6d58a8	0.23178351
85	0x3ec34282	0.3813668
86	0xbe493383	-0.19648556
87	0xbe0179b9	-0.1264409
88	0x3ee2d8e0	0.44306087
89	0x3ec85eb4	0.39134753
90	0x3e50eac5	0.20402057
91	0xbe9b9835	-0.30389562
92	0x3d9114fa	0.07084079
93	0x3d9d0ef4	0.07668868
94	0xbe461e66	-0.19347534
95	0x3d8b64a5	0.06806306
96	0xbec73a9a	-0.38911897
97	0xbe8180d3	-0.25293598
98	0xbf135c34	-0.57562566
99	0x3ea9c5ba	0.33158666
100	0xbe387a66	-0.18015441
101	0x3e6ef546	0.23335752
102	0x3dc2b08e	0.095063314
103	0xbf08c509	-0.5342565
104	0x3eddabac	0.43295038
105	0xbced8e5a	-0.028998543
106	0xbf34728c	-0.70487285
107	0x3eb27105	0.34851852
108	0x3de10551	0.10987342
109	0xbe4af37d	-0.19819446
110	0xbe3bd63d	-0.18343444
111	0x3d4d8450	0.05017501
112	0xbedb3975	-0.42817274
113	0xbef38333	-0.47561035
114	0x3e93904b	0.28821024
115	0xbe079773	-0.13241367
116	0x3ea3c6db	0.31987652
117	0x3edbccc7	0.4292967
118	0xbe975c68	-0.29562688
119	0xbe2bfb95	-0.1679519
120	0x3e84f636	0.25969094
121	0x3ca03a71	0.019559117
122	0x3ec62da5	0.387067
123	0xbeaa6e7f	-0.33287427
124	0x3c07a498	0.008278988
125	0xbede0e8c	-0.43370473
126	0x3f150d32	0.5822326
127	0xbf33d6c2	-0.7024957
128	0xbe6667d6	-0.22500548
129	0x3dae9f04	0.085264236
130	0xbeb4dc2d	-0.3532423
131	0x3e4e724a	0.20160785
132	0x3e89d23d	0.26918212
133	0xbebd1b04	-0.36934674
134	0xbe5506d7	-0.2080339
135	0xbe6a900b	-0.2290651
136	0xbd7caebc	-0.061690077
137	0x3dfe6c91	0.12423051
138	0x3e486b47	0.19572173
139	0x3ee5778a	0.44817764
140	0x3e688ada	0.22709218
141	0x3e439d49	0.19102968
142	0xbdf59ffd	-0.11993406
143	0xbf249e6d	-0.6430424
144	0x3deb319d	0.11484072
145	0xbeadbefb	-0.3393477
146	0xbe7bc8af	-0.24588273
147	0xbf171600	-0.59017944
148	0xbe9b3aab	-0.30318198
149	0x3ebfe5ed	0.37480107
150	0x3e31f51c	0.17378658
151	0x3de3103e	0.11087082
152	0x3ca2ee2c	0.01988896
153	0xbe5172f6	-0.2045401
154	0xbe05e160	-0.13074255
155	0x3d086ee8	0.033308893
156	0xbc7eae6b	-0.015544514
157	0x3e5a39bc	0.21311086
158	0x3e9a5216	0.30140752
159	0xbd06b8e6	-0.032891177
160	0x3d3a2a43	0.04545046
161	0x3e09cb27	0.13456403
162	0x3e93026c	0.28712785
163	0xbe6a0fb2	-0.2285755
164	0x3d904f1c	0.07046339
165	0x3e797322	0.24360326
166	0xbe0a2efa	-0.13494483
167	0x3e5f34e0	0.21797514
168	0xbe8eee4a	-0.27916175
169	0xbf5298ea	-0.8226458
170	0x3e90cd66	0.28281707
171	0x3e3d33d6	0.18476805
172	0x3e114b74	0.1418894
173	0x3dff8be7	0.12477856
174	0x3ea9c97d	0.33161536
175	0x3d264f00	0.040602684
176	0x3e60ba2a	0.21946016
177	0xbe972c87	-0.2952616
178	0x3e594026	0.21215877
179	0x3e73b166	0.23798141
180	0xbeb746c6	-0.35796183
181	0x3ebe93cf	0.37222144
182	0xbd51262a	-0.051061787
183	0x3e938bb4	0.28817523
184	0xbed1a423	-0.4094554
185	0xbe1dbdd7	-0.1540445
186	0x3ddecd0f	0.108789556
187	0xbe03559a	-0.12825623
188	0xbcf59bb8	-0.029981479
189	0xbe4eb105	-0.20184715
190	0xbe37320c	-0.17890185
191	0xbee7775d	-0.45208254
192	0x3d8db28b	0.0691882
193	0xbe5cfeda	-0.21581593
194	0xbcc38144	-0.02386535
195	0x3e8e0716	0.2773978
196	0xbc282421	-0.01026252
197	0x3e3d33f4	0.1847685
198	0x3e8878bc	0.26654613
199	0xbe4ee06f	-0.20202802
200	0xbd39c897	-0.045357313
201	0xbf517c20	-0.81830025
202	0xbec222d7	-0.37917206
203	0x3f440aa6	0.7657875
204	0xbe17fa16	-0.14841494
205	0x3ea82aa8	0.32845044
206	0x3efbcc47	0.4917929
207	0x3e8a8fab	0.27062735
208	0x3d7dfc3d	0.06200813
209	0x3f046ce9	0.51728684
210	0xbd49e7db	-0.04929338
211	0x3e8725a4	0.26395905
212	0x3d094697	0.033514585
213	0x3d9c00f8	0.07617372
214	0x3d8394d7	0.06424873
215	0x3e50f6fc	0.20406717
216	0xbe603feb	-0.21899383
217	0x3e3bfd13	0.18358259
218	0x3f420b97	0.75798935
219	0x3ec66f97	0.3875701
220	0xbd33ca3b	-0.043894034
221	0x3dfd811d	0.12378142
222	0x3e382fa2	0.1798692
223	0x3f0dbfa9	0.55370575
224	0x3f10d5bb	0.56576127
225	0x3e6ac708	0.22927487
226	0x3e88ecaa	0.2674306
227	0x3e4fa716	0.20278582
228	0xbeaa6acc	-0.33284605
229	0x3eb4cafe	0.3531112
230	0xbcf78833	-0.030216312
231	0xbe118d2d	-0.1421401
232	0x3e79d237	0.24396597
233	0x3f15d8d0	0.58533955
234	0xbea4b8ea	-0.32172328
235	0x3e25fb8e	0.16209242
236	0x3cd30a0c	0.025761627
237	0x3ee830d8	0.45349765
238	0xbed65546	-0.41861933
239	0xbd866209	-0.065616675
240	0x3e58a643	0.21157174
241	0xbe169f24	-0.14709145
242	0x3e3d17ea	0.18466154
243	0x3e916361	0.28396133
244	0xbe7e1ee2	-0.24816468
245	0x3ec6b0ad	0.38806668
246	0x3e50f60f	0.20406364
247	0x3ea0ab34	0.31380618
248	0xbde5aeb3	-0.11214962
249	0x3e9a80ae	0.301763
250	0xbf25eeef	-0.6481771
251	0x3e3f2ac6	0.1866866
252	0xbe7076e0	-0.23482847
253	0x3f02b346	0.510548
254	0xbec3cd46	-0.3824255
255	0x3e68f821	0.22750904

cell.xh_to_r.bias f4 [64]
0	0x3e411368	0.18855059
1	0xbda63d1c	-0.081171244
2	0x3e26df8a	0.16296211
3	0x3d471095	0.0485998
4	0x3c55bd48	0.013045616
5	0x3d635134	0.055497363
6	0xbe5de785	-0.21670349
7	0x3e2b9f8f	0.16760086
8	0x3e0bcfb0	0.13653445
9	0x3daf12f3	0.08548536
10	0xbcd634aa	-0.026148159
11	0x3d80c095	0.06286732
12	0x3df376d2	0.118878976
13	0xbe4fdcef	-0.20299123
14	0xbcce21ef	-0.025162665
15	0x3d3be90b	0.045876544
16	0x3e086c1f	0.13322495
17	0x3e0e4627	0.13893948
18	0xbdc3ac1d	-0.095543124
19	0xbcd60041	-0.026123168
20	0x3df6d10f	0.120515935
21	0x3cd30dd8	0.025763437
22	0x3dbf7286	0.093480155
23	0xbe290568	-0.16505969
24	0x3de7cf3f	0.11318826
25	0xbd4354d7	-0.04768833
26	0xbc317dbd	-0.010833201
27	0xbd92f900	-0.07176399
28	0x3e090d22	0.13383916
29	0x3e7173ee	0.2357938
30	0xbdd1f2e1	-0.102514036
31	0xbd9c74bc	-0.07639453
32	0xbccbd375	-0.024881104
33	0x3d8f974f	0.07011282
34	0xbbda61a1	-0.0066644703
35	0x3e8bccb6	0.2730462
36	0x3ccb99ea	0.024853665
37	0x3d9ea914	0.07747093
38	0xbc8028dd	-0.015644485
39	0x3e458a88	0.19291127
40	0x3cd7d352	0.026345883
41	0xbe1d40c1	-0.15356733
42	0x3d1ccdc5	0.038282175
43	0xbb3af3c5	-0.0028526646
44	0x3d9f5d09	0.07781417
45	0xbd5287ca	-0.05139903
46	0x3d4daf5c	0.050216064
47	0xbd1332c1	-0.035937075
48	0xbe1c4054	-0.15258914
49	0x3e2a6309	0.16639341
50	0x3dcf65fe	0.10126875
51	0xbd1cca01	-0.038278583
52	0x3e04221e	0.1290364
53	0xbe0f925b	-0.14020674
54	0xbd0e8da3	-0.034803044
55	0x3d0ad4ab	0.033894222
56	0x3d10bfd0	0.035339177
57	0x3bc6e7cd	0.0060701133
58	0x3ded776a	0.11595042
59	0x3d11b7b3	0.03557558
60	0xbe36f251	-0.17865874
61	0xbc3c776d	-0.011503083
62	0xbd94b8c8	-0.07261807
63	0xbd8dba75	-0.069203295

cell.xh_to_hbar.weight f4 [64, 128]
0	0x3e19d7fb	0.15023796
1	0xbd04a0be	-0.03237986
2	0xbe4d5980	-0.20053673
3	0x3df02d74	0.117274195
4	0xbe6dfabb	-0.23240177
5	0x3d90a0fe	0.07061957
6	0x3d6053fc	0.054767594
7	0xbddc2d28	-0.107508
8	0xbcd92d43	-0.02651084
9	0xbdd1d125	-0.10244969
10	0x3ea087ee	0.31353706
11	0xbe7b15e1	-0.24520065
12	0x3d9cf689	0.0766421
13	0xbd3a2de9	-0.04545394
14	0x3dbf2f6d	0.093352176
15	0x3e7b314a	0.24530521
16	0xbeabe5fa	-0.33573896
17	0x3e791f66	0.24328384
18	0xbe402ff6	-0.18768296
19	0xbdf931d6	-0.121677086
20	0xbd8243f9	-0.06360621
21	0xbd9bfdda	-0.07616778
22	0x3ee5a5bb	0.44853005
23	0x3ddc5c4a	0.1075979
24	0xbded7d85	-0.115962066
25	0x3d74fbfd	0.059810627
26	0xbdc83e00	-0.097774506
27	0xbdd42a6f	-0.10359656
28	0x3dffb833	0.12486305
29	0xbe5eff56	-0.2177709
30	0x3d34b8c5	0.044121522
31	0xbe49e592	-0.1971648
32	0x3e855c2a	0.26046878
33	0x3909d2c9	0.00013143862
34	0xbdcf0a1c	-0.1010935
35	0xbe43f4a1	-0.19136287
36	0xbeb614d9	-0.3556278
37	0x3dac234f	0.08405172
38	0x3e72ed22	0.23723271
39	0xbd80da58	-0.06291646
40	0xbcd44419	-0.025911378
41	0xbd74d15a	-0.059769966
42	0xbe6be094	-0.23034889
43	0x3e34b271	0.17646195
44	0xbd2c1f86	-0.04202225
45	0xbdcd0918	-0.100115
46	0xbc888887	-0.016666664
47	0x3e350c36	0.1768044
48	0xbd04f116	-0.03245648
49	0x3d1b1248	0.03785923
50	0xbdd9688c	-0.10615644
51	0x3df529f4	0.119708925
52	0x3e2d8f0d	0.16949101
53	0x3d860a34	0.06544915
54	0x3e59c5f8	0.21266925
55	0xbd8accfb	-0.06777378
56	0x3e83e06c	0.25757158
57	0x3c98b6af	0.018641798
58	0x3e046d3c	0.12932295
59	0xbd2ac339	-0.041690085
60	0x3df639d6	0.1202275
61	0x3e4bc365	0.19898756
62	0xbc8afc24	-0.016965933
63	0x3d9badfc	0.07601544
64	0xbd36121d	-0.044450868
65	0xbdc3b479	-0.09555907
66	0xbd31a84d	-0.043373395
67	0x3dd5d72a	0.1044143
68	0xbda099fa	-0.07841869
69	0xbcb359b4	-0.02189336
70	0x3e32c336	0.1745728
71	0xbeae8d4e	-0.34092182
72	0xbedfc2ac	-0.4370321
73	0xbdd1b7c1	-0.102401264
74	0x3e8edff3	0.27905235
75	0xbdde551c	-0.10856077
76	0xbe020c06	-0.12699899
77	0x3ee2ca64	0.44295037
78	0xbef48f9f	-0.47765824
79	0xbe88bda9	-0.267072
80	0xbea94b35	-0.3306519
81	0x3ccb1684	0.02479101
82	0xbe942635	-0.289354
83	0x3ef3f711	0.47649434
84	0xbcd2fc2b	-0.025755009
85	0x3f12eeea	0.57395804
86	0xbe61520a	-0.22003952
87	0x3f3eecdb	0.7458016
88	0x3ea9803a	0.33105642
89	0x3e6feebc	0.23430914
90	0x3d63b5cc	0.055593297
91	0x3d22e6af	0.03977078
92	0x3e2f35c8	0.1711036
93	0x3e96088e	0.29303402
94	0x3eaf48c7	0.34235212
95	0xbe26a100	-0.16272354
96	0xbe091676	-0.13387474
97	0x3db3022e	0.0874065
98	0x3e567f23	0.20946936
99	0x3e328292	0.17432621
100	0x3c6f0bb5	0.0145901935
101	0x3d36073f	0.044440504
102	0xbea258b8	-0.31708312
103	0xbe242573	-0.1602991
104	0xbe533ed4	-0.20629436
105	0x3e1d9da5	0.15392168
106	0x3dfd6cfd	0.123743035
107	0x3ef0dbd8	0.47042727
108	0x3e01466c	0.1262452
109	0x3d8e0376	0.06934254
110	0x3ebdc643	0.37065324
111	0xbe8b7c68	-0.27243352
112	0xbd037488	-0.032093555
113	0xbf0a7064	-0.54077744
114	0x3e1de37f	0.15418814
115	0x3e1622ca	0.14661708
116	0xbca077e1	-0.019588413
117	0x3e74c894	0.2390464
118	0x3d10281a	0.035194494
119	0x3db8acd1	0.09017337
120	0xbce44bc5	-0.027868161
121	0xbef9ec09	-0.48812893
122	0x3e95d2a5	0.29262272
123	0xbe91bce8	-0.28464437
124	0xbe548fd7	-0.20757996
125	0x3d159d57	0.036527004
126	0x3dd99dcd	0.10625801
127	0x3e00abf0	0.12565589
128	0x3d3891c4	0.045060888
129	0xbd3bffed	-0.045898367
130	0xbd8c386e	-0.068467006
131	0x3e3020d6	0.17200026
132	0x3dcd4a24	0.10023907
133	0xbd1f1adf	-0.038843986
134	0xbe16ad98	-0.14714658
135	0x3d7654ed	0.060139585
136	0x3e40baaa	0.18821207
137	0xbd41d624	-0.04732336
138	0x3cc03c3b	0.02346622
139	0x3da19b08	0.07890898
140	0x3a4782a2	0.00076107134
141	0xbe194002	-0.14965823
142	0x3e37d7b7	0.17953382
143	0x3d1cae60	0.038252234
144	0xbe7b7233	-0.24555282
145	0xbe3f3f46	-0.1867648
146	0xbdd7e1f6	-0.105411455
147	0xbd81567d	-0.063153245
148	0xbc95810e	-0.018250015
149	0xbd8256cc	-0.063642114
150	0xbd134c47	-0.035961416
151	0x3d64f41a	0.055896856
152	0xbd772a2f	-0.060342964
153	0xbe0d72a9	-0.1381327
154	0xbdcff617	-0.1015436
155	0xbdb6a61e	-0.08918403
156	0x3dd36da9	0.103236504
157	0x3d77772f	0.060416397
158	0xbd1c41c5	-0.03814866
159	0xbe259d6a	-0.1617333
160	0x3e201296	0.1563209
161	0xbdbd8661	-0.09254146
162	0xbdb58df3	-0.08864965
163	0x3ddc6e14	0.10763183
164	0x3e806c2e	0.25082535
165	0xbe41a1a3	-0.18909316
166	0x3e013faa	0.12621942
167	0xbe4ff59a	-0.20308533
168	0x3db9600a	0.09051521
169	0xbd831453	-0.06400361
170	0xbcd410aa	-0.025886852
171	0x3e2d7915	0.1694072
172	0xbd83907c	-0.064240426
173	0xbdc6d5f7	-0.09708779
174	0xbe1af58a	-0.15132728
175	0x3dec8c57	0.11550205
176	0x3e1f0da0	0.15532541
177	0x3d0272cb	0.031847756
178	0x3d2ba0e6	0.04190149
179	0x3d301346	0.04298713
180	0xbecf0fdf	-0.40441796
181	0xbe01de4d	-0.12682457
182	0xbd4438aa	-0.0479056
183	0xbe27ac80	-0.16374397
184	0xbe6c0b71	-0.2305124
185	0x3d934894	0.071915776
186	0xbd7bd07d	-0.061478127
187	0x3e3331a3	0.17499404
188	0xbe44dab6	-0.19224057
189	0xbdf7acd8	-0.12093514
190	0xbd730ad6	-0.059336506
191	0xbe3ae98c	-0.18253154
192	0x3dc61f5b	0.09673949
193	0xbe9408dc	-0.2891301
194	0xbe199a89	-0.15000357
195	0xbe9fe0cb	-0.3122619
196	0x3d18c8c4	0.03730084
197	0xbd3c852a	-0.046025433
198	0xbe4e72e6	-0.20161018
199	0xbdaa55fa	-0.0831718
200	0xbe9a2f81	-0.30114368
201	0x3e46890d	0.19388218
202	0x3ead56b9	0.33855227
203	0x3dc9569d	0.09830973
204	0xbe3e9904	-0.18613058
205	0xbeb3d8fa	-0.35126477
206	0xbd0d4f1c	-0.034499273
207	0x3f0bde7d	0.54636365
208	0xbe06be4a	-0.13158527
209	0x3e05307a	0.13006774
210	0x3bd5b44f	0.0065217386
211	0xbead62c6	-0.3386442
212	0x3c92c988	0.017918363
213	0x3e270b6a	0.16312948
214	0x3ed47adc	0.41499984
215	0xbf14bb97	-0.5809874
216	0xbd1f9a6c	-0.038965628
217	0x3ede9a9c	0.43477333
218	0xbed0c908	-0.40778375
219	0xbd6be14e	-0.057587914
220	0x3e205b84	0.1565991
221	0x3cc20cba	0.02368771
222	0xbf58b578	-0.846519
223	0xbe99b638	-0.30021834
224	0xbef64f2b	-0.48107275
225	0x3e8c76db	0.2743443
226	0xbf138389	-0.5762258
227	0x3a923777	0.0011155446
228	0xbd9caaa8	-0.076497376
229	0x3e9bac5c	0.30404937
230	0x3f1a95e3	0.6038496
231	0x3e5e7ea6	0.21728
232	0xbd167adc	-0.03673826
233	0x3d5f8695	0.054571707
234	0xbd400161	-0.046876315
235	0xbe5c9b52	-0.21543625
236	0x3e494b74	0.1965769
237	0xbe52a007	-0.20568858
238	0xbf084bcf	-0.53240675
239	0xbf359453	-0.7092945
240	0x3e1a874d	0.15090676
241	0xbd8f065e	-0.06983636
242	0xbc3ab6ec	-0.011396151
243	0xbee5d2fd	-0.44887534
244	0xbe9844a0	-0.29739857
245	0xbed505f1	-0.41606095
246	0xbd3e1ee9	-0.046416197
247	0xbe90f7a8	-0.28313947
248	0xbda7079a	-0.08155747
249	0xbe4acf0f	-0.19805549
250	0xbeefffa8	-0.46874738
251	0x3e3c4b08	0.18387997
252	0xbd5f0093	-0.054443907
253	0x3de6c4b9	0.112679906
254	0x3f304015	0.6884778
255	0xbea2073f	-0.31646153

cell.xh_to_hbar.bias f4 [64]
0	0x3e2403ab	0.16017024
1	0xbe51cfa8	-0.20489371
2	0x3d70068f	0.058600005
3	0x3e59f251	0.21283843
4	0x3e5acbb9	0.21366777
5	0xbd8c2353	-0.06842675
6	0xbe751ee5	-0.23937567
7	0x3c2c4d66	0.0105165
8	0x3c9a91ee	0.018868413
9	0x3dfc29ba	0.12312646
10	0x3cf00253	0.029297983
11	0x3ddd768f	0.10813629
12	0xbe3c77a1	-0.1840501
13	0xbe41c261	-0.18921806
14	0x3e27f6b4	0.16402704
15	0xbd1bff11	-0.038085047
16	0xbd0b4454	-0.03400071
17	0x3e07c5d5	0.1325906
18	0x3e5d2ca8	0.21599066
19	0xbe7453c1	-0.23860075
20	0x3d022457	0.031772938
21	0xbe1088d6	-0.14114699
22	0xbdd8b947	-0.10582214
23	0xbd600c1a	-0.05469904
24	0x3ccb7480	0.024835825
25	0xbe738e97	-0.23784862
26	0x3db05bf0	0.08611286
27	0x3d9999a6	0.07500009
28	0xbe27eabb	-0.16398136
29	0x3d10db88	0.03536561
30	0x3cefc2b0	0.029267639
31	0x3de4503f	0.11148118
32	0x3e89d99b	0.26923832
33	0xbde0886b	-0.1096352
34	0x3df0354d	0.11728916
35	0xbcee9d60	-0.029127777
36	0xbd5f987c	-0.05458878
37	0xbd3b61de	-0.04574763
38	0xbe02e22a	-0.12781587
39	0xbd4d9459	-0.050190303
40	0xbd3af672	-0.045645185
41	0x3e3a635d	0.18201967
42	0x3cfca346	0.030839574
43	0xbdb55d64	-0.088557035
44	0xbe39c065	-0.18139799
45	0xbd6c4b23	-0.057688843
46	0x3e9a28f8	0.30109382
47	0xbdcea051	-0.10089172
48	0xbc68f987	-0.014219648
49	0xbe105132	-0.14093474
50	0x3db3ee55	0.087856926
51	0x3d8fd4d7	0.07023018
52	0x3e1d4e07	0.15361796
53	0xbe1616f5	-0.14657195
54	0xbde386ca	-0.11109693
55	0x3d69c3b2	0.057071395
56	0xbdf51046	-0.119659945
57	0x3d95d34d	0.07315693
58	0x3dc95d4f	0.0983225
59	0x3e49e5c7	0.1971656
60	0xbccf7d6a	-0.025328357
61	0xbda02dea	-0.078212574
62	0x3ddab7d3	0.10679593
63	0xbc38ea27	-0.011286295

lm_head.weight f4 [27, 64]
0	0x3e198c04	0.14994818
1	0xbeea5866	-0.45770568
2	0xbed48007	-0.41503927
3	0x3f5897e2	0.84606755
4	0x3de96dbb	0.113978826
5	0x3f5616b8	0.83628416
6	0x3e308e6f	0.17241834
7	0xbea93954	-0.3305155
8	0xbeda95fa	-0.42692548
9	0x3ea4da5b	0.32197842
10	0xbe6df906	-0.23239526
11	0x3d389ee3	0.0450734
12	0xbe061045	-0.13092144
13	0xbe93f2bb	-0.28896126
14	0x3d2f02b1	0.042727176
15	0x3ea5aae6	0.32356948
16	0x3e7c9a3c	0.2466821
17	0x3df69632	0.12040366
18	0x3e3be000	0.18347168
19	0x3d1f36ae	0.038870506
20	0xbeb55560	-0.35416698
21	0xbe7f2ff7	-0.24920641
22	0xbe860971	-0.26179078
23	0x3deb8205	0.11499409
24	0xbce4c623	-0.02792651
25	0xbe98a394	-0.298123
26	0xbd637986	-0.055535816
27	0x3e85ff72	0.26171452
28	0x3eaa8e3b	0.33311638
29	0xbdda5d14	-0.106622845
30	0x3ef47dc1	0.47752193
31	0x3d568e5f	0.05238187
32	0x3da46b7e	0.08028315
33	0xbf417980	-0.7557602
34	0x3e3a89b8	0.18216598
35	0xbeb29d98	-0.3488586
36	0xbe1b23f8	-0.1515044
37	0xbea8a59e	-0.32938856
38	0x3d967cd6	0.07348029
39	0x3d9f65d3	0.07783093
40	0x3e331ee9	0.1749226
41	0x3ebce171	0.36890748
42	0x3e86423b	0.26222405
43	0x3d7b01db	0.061281066
44	0x3f3ca9ff	0.73696893
45	0xbe0aec8b	-0.13566796
46	0x3e722ed4	0.23650676
47	0xbdd01fc9	-0.101623125
48	0x3e8c68c9	0.27423695
49	0xbf51c30c	-0.8193824
50	0xbf35c0cd	-0.70997316
51	0xbedc20be	-0.4299373
52	0x3ebaa4f5	0.36453977
53	0xbe257c2a	-0.16160646
54	0x3c01c8a9	0.007921376
55	0xbe0a11b9	-0.13483323
56	0x3eeae349	0.4587653
57	0x3e9ca0ee	0.3059153
58	0xbe2225e3	-0.15834765
59	0x3c108fab	0.008823316
60	0x3f0c72f8	0.5486293
61	0x3d21ec7f	0.03953218
62	0x3e947267	0.28993532
63	0x3e6bec67	0.23039399
64	0xbe443123	-0.19159369
65	0x3eae6955	0.34064737
66	0xbc907c36	-0.017637353
67	0xbc89c0e8	-0.016815618
68	0x3e2d88cc	0.16946715
69	0xbed29faf	-0.41137454
70	0xbe5ef704	-0.21773916
71	0x3ef00f59	0.4688671
72	0xbc90669a	-0.01762705
73	0x3e7f0690	0.24904847
74	0x3e19a795	0.15005334
75	0x3ec8d2d2	0.39223343
76	0xbe27beda	-0.16381398
77	0x3df5e9e5	0.120075025
78	0x3eb33717	0.35002968
79	0x3eafb067	0.34314272
80	0x3ed2884f	0.4111962
81	0xbed25149	-0.4107764
82	0xbd76d33d	-0.060260046
83	0xbe806ae7	-0.2508156
84	0x3efed780	0.49773788
85	0xbe028a6f	-0.1274812
86	0x3e470db8	0.19438827
87	0x3ecbaae2	0.3977881
88	0x3e250ce4	0.16118199
89	0x3d734195	0.059388716
90	0xbe7c5a6d	-0.2464387
91	0xbe8835b4	-0.26603472
92	0xbe6c7c4b	-0.23094289
93	0x3d66aa69	0.05631486
94	0x3ea53c3a	0.32272512
95	0x3e0dd336	0.13850102
96	0xbdf38272	-0.11890115
97	0x3e03bf7b	0.12866013
98	0x3ed04f38	0.4068544
99	0xbc5af799	-0.013364696
100	0x3d840901	0.0644703
101	0x3e9a530e	0.3014149
102	0xbe7d7379	-0.2475108
103	0xbe708538	-0.23488319
104	0xbec302e6	-0.3808815
105	0xbd3727be	-0.044715635
106	0x3d972fd9	0.07382173
107	0x3e9b0e86	0.30284518
108	0xbd1feaaa	-0.039042152
109	0xbe60f527	-0.21968518
110	0xbee7d2e7	-0.45278093
111	0x3d07efc8	0.033187658
112	0xbeda05bb	-0.42582497
113	0xbe1bf80a	-0.15231338
114	0x3dce78f8	0.10081667
115	0xbec7dbdf	-0.39034936
116	0x3e3ec86e	0.18631145
117	0x3e171ab2	0.14756277
118	0x3e0219c1	0.12705137
119	0x3e8be032	0.27319485
120	0xbe094364	-0.13404614
121	0x3e4c98ce	0.19980165
122	0x3e204cb2	0.15654257
123	0xbecb8de7	-0.397567
124	0x3d865585	0.0655928
125	0xbd0b0439	-0.033939574
126	0x3eda68bc	0.4265803
127	0xbe011cb1	-0.12608601
128	0xbdd8ce27	-0.105861954
129	0xbf002ab5	-0.50065166
130	0xbe62a4ae	-0.22133133
131	0xbe3dc57d	-0.18532367
132	0x3c175ef8	0.009238951
133	0xbdc12cf4	-0.09432402
134	0x3e4b0ebe	0.19829842
135	0xbedd44c9	-0.4321654
136	0x3e5ffbb0	0.21873355
137	0x3e1be7b5	0.15225108
138	0x3f1224e7	0.5708756
139	0xbe9f20b2	-0.31079632
140	0x3edc8b16	0.43074864
141	0x3e231ae2	0.15928224
142	0x3e8aa355	0.27077737
143	0x3e838000	0.25683594
144	0xbd31aeed	-0.043379713
145	0xbe0c4baa	-0.13700739
146	0xbe13880c	-0.14407367
147	0x3e6ab912	0.22922161
148	0xbea0c7af	-0.31402346
149	0x3dac303f	0.0840764
150	0xbeb9a7e1	-0.36260894
151	0x3ecccd3f	0.4000034
152	0xbdabe3bd	-0.08393047
153	0x3e039991	0.1285155
154	0x3ea257ba	0.31707555
155	0x3e51f4fd	0.20503612
156	0xbe2a3a6a	-0.16623846
157	0x3e1a40b6	0.15063748
158	0x3d98bcb9	0.07457871
159	0x3dcb2301	0.09918786
160	0xbea24e05	-0.3170015
161	0x3e8eaa5e	0.27864355
162	0xbe87ed1f	-0.26548097
163	0xbe6c4920	-0.2307477
164	0x3e167bd1	0.1469567
165	0xbe206eae	-0.15667221
166	0xbca5fdbf	-0.020262597
167	0x3f19e341	0.60112387
168	0x3e8f5153	0.27991733
169	0x3e2d9408	0.16951
170	0x3ebbc404	0.36672986
171	0xbee1d3a2	-0.44106776
172	0xbdfb1ac3	-0.12260964
173	0x3dc0053e	0.09376
174	0x3e117f3f	0.14208697
175	0x3ccae8d8	0.024769232
176	0x3efbd2ab	0.49184164
177	0x3dccf592	0.10007776
178	0xbdae2fd5	-0.08505217
179	0x3e22386b	0.15841834
180	0x3d578bdb	0.05262361
181	0x3e02788a	0.12741295
182	0xbeeb14ca	-0.45914298
183	0x3bb1b569	0.005423237
184	0xbe22de98	-0.15905225
185	0x3e185048	0.14874375
186	0xbd53f8cc	-0.051750943
187	0xbeb2cfbb	-0.3492411
188	0xbed6f0bd	-0.41980544
189	0xbe6b7ff9	-0.22998036
190	0x3e85ecc0	0.26157188
191	0xbe13b78a	-0.14425483
192	0x3cf876e6	0.030330133
193	0x3e384aa9	0.1799723
194	0x3b528bef	0.0032126864
195	0xbe2d4f75	-0.16924842
196	0x3eb667c5	0.35626045
197	0xbe256b63	-0.16154246
198	0xbeb2fb2a	-0.34957248
199	0xbf40692c	-0.7516048
200	0xbe71e103	-0.23620991
201	0xbda76739	-0.08173985
202	0x3f0105b7	0.50399345
203	0x3ea53e3a	0.32274038
204	0x3d163190	0.03666836
205	0xbf21eacb	-0.6324889
206	0xbc8b2b2a	-0.016988356
207	0x3e7da299	0.24769057
208	0x3e9c31e3	0.3050681
209	0xbdc6761d	-0.09690497
210	0x3eeba4f3	0.46024284
211	0x3ecb5cd9	0.39719275
212	0xbea5a579	-0.32352808
213	0xbe42583e	-0.18978974
214	0xbc2cc4c9	-0.010544964
215	0xbdb7d155	-0.08975474
216	0x3ebb81ce	0.3662247
217	0x3e79ae2c	0.24382848
218	0xbe766f62	-0.24065927
219	0x3cb71a4a	0.022351403
220	0x3e1290aa	0.14312997
221	0xbe3093a3	-0.17243819
222	0xbea40381	-0.32033923
223	0xbde68c14	-0.112571865
224	0x3ea804f4	0.3281628
225	0xbd06e9df	-0.03293788
226	0xbd60ffb1	-0.054931346
227	0xbdd4c1ab	-0.10388502
228	0x3eaabc31	0.33346704
229	0xbe9f417e	-0.31104654
230	0xbed7a9ae	-0.42121643
231	0x3ce59096	0.028023046
232	0x3e07a89a	0.1324791
233	0xbe6a9b5b	-0.22910826
234	0x3d785543	0.060628187
235	0xbed7ee44	-0.4217397
236	0xbeee65b2	-0.46561962
237	0xbdad348e	-0.0845729
238	0x3d42e4e6	0.047581576
239	0x3e52255e	0.20522067
240	0xbd811bef	-0.06304156
241	0xbdce71b8	-0.10080284
242	0xbc890572	-0.01672623
243	0x3f054675	0.52060634
244	0xbde72b67	-0.11287575
245	0x3e85e390	0.2615018
246	0x3e92137b	0.28530487
247	0xbd9ea3e3	-0.07746103
248	0xbb4ce25b	-0.0031262848
249	0xbea2d47f	-0.31802747
250	0xbdcd151e	-0.100137934
251	0xbe9570d8	-0.29187655
252	0x3ec9dd9b	0.39426884
253	0xbddea051	-0.10870422
254	0xbf356da9	-0.70870453
255	0xbc17ef1d	-0.009273318

lm_head.bias f4 [27]
0	0xbe5632a4	-0.20917755
1	0xbc7f0a64	-0.015566442
2	0xbe492b26	-0.19645366
3	0x3ce035d2	0.027369414
4	0x3c5afcfa	0.013365978
5	0xbe421682	-0.18953899
6	0xbc2ddd92	-0.0106119085
7	0xbd485511	-0.04890925
8	0x3e6a37ba	0.2287282
9	0x3dbe52c3	0.09293129
10	0xbf194266	-0.5986694
11	0x3e5f519d	0.21808477
12	0x3c7c918f	0.015415563
13	0xbd27664b	-0.04086904
14	0x3df4c0c6	0.11950831
15	0xbdce8cde	-0.10085462
16	0xbddca2e0	-0.107732534
17	0xbf3fa3ff	-0.74859613
18	0x3da5f8be	0.081040844
19	0x3ed32320	0.41237736
20	0xbcf6d92d	-0.030132854
21	0x3daaac23	0.08333614
22	0xbf02573b	-0.50914353
23	0xbdbf8f5b	-0.09353515
24	0x3e05b5f3	0.1305769
25	0xbe410c8f	-0.18852447
26	0xbeaec78e	-0.34136623
