data/model_layer/gru_model.pt (torch, 838596 bytes, 57 tensors)

transformer.wte.weight f4 [27, 64]
-0.3277226 -1.7501228 -0.40337947 1.6515422 1.0722498 0.5954374 -0.30103362 -0.038772568
-0.39220387 1.1164494 -0.95139456 0.6501137 -0.39137182 1.5299034 0.27804464 0.32520896
1.6570069 1.9692601 -1.0212748 -0.046592794 0.23156692 -0.35633755 -0.4988584 -0.7408435
1.7366185 0.3107268 0.5468515 -0.12754968 0.70735866 0.4351166 -0.4011204 -0.95211977
-0.18717034 -0.50194067 -0.20058675 0.6505197 0.014290565 -0.056029692 -0.5464228 0.25478685
-1.0498064 0.24405809 0.38634396 0.22183509 0.95545775 0.38012028 0.82783365 0.27397248
0.82277346 1.9936208 0.87361264 -0.4307709 0.47912276 1.4393356 0.5354207 0.657344
-0.7475947 -0.19051355 -0.26442 -0.8144843 0.056773495 0.55963326 0.23290198 0.42902195
1.368883 0.52142936 1.1756631 0.6798195 0.39724088 0.6198852 0.9679554 0.20534982
0.3218072 -0.7407401 0.51504123 -0.9590134 0.8422358 -0.9185533 -0.37460524 0.7476131
0.7297652 0.5911336 -0.05777576 0.88876754 -0.6828345 1.2444878 -0.74098027 -0.31465927
0.6974884 1.24388 0.8417413 -0.44962338 0.38246936 -0.040804576 0.28054377 -0.37568095
-0.17566723 -0.25690717 -0.1222544 0.4392062 -0.8595902 0.1359616 0.11754891 -0.13635112
-0.9450789 0.032725193 1.050443 0.07378265 0.9585511 0.82078993 -0.07923423 0.15137573
0.66991705 1.7972157 0.53732157 -0.097720794 -1.4711772 -0.4010305 0.03876742 -1.5001819
0.06271144 -0.73258597 0.58585984 0.90552974 -0.23326807 -0.45285913 -1.3597596 -0.79460925
0.41993433 0.76564676 -0.44565287 1.6987267 -0.33686346 -0.9457903 0.16133694 -0.8192353
0.088421926 -0.33501512 0.82839614 0.19635653 -0.39716253 0.52880585 0.9608726 -0.38502428
-0.24192785 -0.27558798 -0.97044724 -0.2447949 0.045420032 0.74134064 0.01658805 0.8716824
-0.7960467 0.5203009 -0.11351071 -0.8124183 -0.021059206 -3.0340793 0.8060984 0.5609778
-0.27132627 1.9421129 0.5557517 -0.64152217 0.55995244 -1.4687359 0.41579413 1.1043609
-0.56944776 -0.74673694 -0.8273472 -1.7526975 0.20539798 0.656551 -0.2096875 0.83852684
0.2828006 1.2108775 0.23320498 -1.2693142 -0.43486562 0.8207068 -0.3511768 -0.5259361
1.6757896 0.7990316 -0.25307113 -0.57167995 0.07732786 -0.27851892 -0.67122245 0.47515
0.2150131 0.4853362 0.5574247 -1.4966909 -1.1094487 0.7134992 0.90436196 1.2343918
0.25924203 0.4994758 0.5824879 -0.29969057 -0.058429766 -0.61017483 1.0688832 1.5103902
0.5911462 1.8522825 0.079861894 0.40351096 0.18933259 0.7237669 -0.102478325 -0.0028409227
-0.16053292 0.017936038 -0.11678158 0.9137342 0.12365335 -1.3548311 -1.8500466 0.6670933
-0.34900275 0.7877674 -0.13421531 0.6270082 1.4671632 1.0808066 0.53369504 -0.89735734
0.3936172 0.94110376 -0.51933324 -0.7781195 -0.3436609 -0.72788924 -0.24132967 1.2306454
-0.047034934 -0.10408495 -0.6112071 -1.3077719 1.3030413 -1.1165463 -0.6614324 -0.2204485
-0.95609665 -0.97920966 -0.12721339 0.6551125 0.1002084 0.15972531 -0.26537818 -0.2109934
00000000: 42cb a7be 0604 e0bf c187 cebe bc65 d33f
00000010: 7b3f 893f 966e 183f 1421 9abe fccf 1ebd
00000020: f2ce c8be d0e7 8e3f 988e 73bf da6d 263f
00000030: e361 c8be e0d3 c33f de5b 8e3e ca81 a63e
00000040: cd18 d43f b710 fc3f 22b9 82bf 16d8 3ebd
00000050: e11f 6d3e e071 b6be 5e6a ffbe eba7 3dbf
00000060: 8449 de3f 9517 9f3e 76fe 0b3f 629c 02be
00000070: 7515 353f 9ac7 de3e a75f cdbe 1fbe 73bf
00000080: 95a9 3fbe 2f7f 00bf 9d66 4dbe 7688 263f
00000090: f922 6a3c 647f 65bd 5de2 0bbf 6c73 823e
000000a0: 0e60 86bf 5dea 793e e0ce c53e bd28 633e
000000b0: e198 743f 209f c23e e8ec 533f 1f46 8c3e
000000c0: 48a1 523f f72e ff3f 14a5 5f3f 018e dcbe
000000d0: 944f f53e 263c b83f 5511 093f b247 283f
000000e0: 5e62 3fbf fc15 43be 0f62 87be 0b82 50bf
000000f0: 538b 683d 2044 0f3f db7d 6e3e c4a8 db3e
00000100: 8f37 af3f 657c 053f 217c 963f a708 2e3f
00000110: 2863 cb3e ccb0 1e3f edcb 773f 3947 523e
00000120: eac3 a43e 25a1 3dbf bed9 033f e781 75bf
00000130: c49c 573f 4f26 6bbf 42cc bfbe 9263 3f3f
00000140: e4d1 3a3f 8854 173f 46a6 6cbd 4586 633f
00000150: 3ece 2ebf 604b 9f3f e2b0 3dbf 051b a1be
00000160: 9a8e 323f 7637 9f3f 5c7c 573f 0935 e6be
00000170: 06d3 c33e b322 27bd 6fa3 8f3e 4159 c0be
00000180: 1ce2 33be 5689 83be 8460 fabd a3df e03e
00000190: 1a0e 5cbf 8539 0b3e 7cbd f03d a19f 0bbe
000001a0: b1f0 71bf da0a 063d eb74 863f 5c1b 973d
000001b0: 9b63 753f 4a1f 523f 8e45 a2bd 3d02 1b3e
000001c0: af7f 2b3f 2a0b e63f e88d 093f d721 c8bd
000001d0: 894f bcbf df53 cdbe 96ca 1e3d f605 c0bf
000001e0: db6e 803d c18a 3bbf e9fa 153f ccd0 673f
000001f0: d3dd 6ebe 27dd e7be 9a0c aebf 836b 4bbf
00000200: a201 d73e 6d01 443f 9d2c e4be e06f d93f
00000210: 5e79 acbe 501f 72bf 8335 253e 68b9 51bf
00000220: 8e16 b53d 1a87 abbe c511 543f b011 493e
00000230: e358 cbbe d25f 073f bffb 753f e721 c5be
00000240: efbb 77be de19 8dbe 3b6f 78bf 84ab 7abe
00000250: 5b0a 3a3d 80c8 3d3f aae3 873c 9426 5f3f
00000260: b7c9 4bbf 7132 053f 4e78 e8bd a5fa 4fbf
00000270: 5b84 acbc 5b2e 42c0 775c 4e3f 3e9c 0f3f
00000280: 47eb 8abe 2897 f83f be45 0e3f cc3a 24bf
00000290: 0b59 0f3f 8aff bbbf f8e2 d43e b35b 8d3f
000002a0: 54c7 11bf 272a 3fbf 07cd 53bf 6458 e0bf
000002b0: d953 523e ba13 283f 52b8 56be b2a9 563f
000002c0: 3ecb 903e 09fe 9a3f 49cd 6e3e e378 a2bf
000002d0: b5a6 debe d719 523f 72cd b3be c0a3 06bf
000002e0: 4680 d63f 568d 4c3f 8a92 81be 9e59 12bf
000002f0: 125e 9e3d 089a 8ebe 3cd5 2bbf dc46 f33e
00000300: 652c 5c3e fd7d f83e 63b3 0e3f 9193 bfbf
00000310: 6a02 8ebf e2a7 363f 4484 673f 8d00 9e3f
00000320: 5fbb 843e 4bbb ff3e ed1d 153f 0b71 99be
00000330: 0d54 6fbd 6b34 1cbf 2ad1 883f 7754 c13f
00000340: 5b55 173f 9817 ed3f a28e a33d fd98 ce3e
00000350: 67e0 413e ca48 393f 28e0 d1bd c62e 3abb
00000360: be62 24be 99ee 923c 2e2b efbd 7cea 693f
00000370: f83d fd3d 1b6b adbf 54ce ecbf a0c6 2a3f
00000380: 7db0 b2be 20ab 493f bd6f 09be 9c83 203f
00000390: 01cc bb3f df57 8a3f 3da0 083f 36b9 65bf
000003a0: 3288 c93e 2dec 703f 06f3 04bf d732 47bf
000003b0: 52f4 afbe f356 3abf 201f 77be ca85 9d3f
000003c0: b4a7 40bd 7e2a d5bd 1278 1cbf 1265 a7bf
000003d0: 0fca a63f fdea 8ebf a253 29bf 40bd 61be
000003e0: c0c2 74bf 7cad 7abf 3a44 02be 74b5 273f
000003f0: 103a cd3d 088f 233e a6df 87be a70e 58be

transformer.wpe.weight f4 [17, 64]
1.323315 0.64623165 0.07171468 -1.1204466 -0.282552 -0.2806617 -1.2159436 0.23539127
1.3653748 2.116618 -0.71757793 0.48697835 -0.82997936 1.3429005 -1.0540806 0.82867855
0.5108598 -0.22330903 -0.08549461 0.3975486 0.051800787 -0.35800466 0.0009728573 -2.933024
-0.31108263 1.3117884 1.0362943 -0.9715679 0.9885178 -0.6014952 -0.5791211 0.6263293
-0.1515853 -0.7071995 -0.88478017 0.32563016 -0.8802452 0.26054567 0.87401557 -1.5170758
-0.88282955 -0.6034351 0.37722552 -0.61048216 0.23771472 -0.3213075 -1.055712 0.62716293
0.50790316 1.3242139 -0.70087415 0.75902784 0.36589068 -0.3408042 0.8573626 0.6101642
-0.35230058 -0.7402481 -0.9823564 -0.101816095 0.12973794 -0.0568703 -1.0895938 -0.122350164
-0.6906174 0.02305511 0.05482989 0.4080756 -0.020608893 -1.7309877 0.80617815 0.57159084
-0.7080261 -0.45430052 -1.0036787 0.26514408 -0.28980342 -0.20516321 -1.6776279 0.8182015
-1.1130083 -0.98704064 0.15927435 0.41091698 1.7647423 0.45596817 0.009250414 -1.6736369
-0.5639861 0.8005367 -0.7074375 1.7881917 -0.5885851 -0.1962184 0.037161153 -0.8929832
-0.7787822 -0.32487902 -1.0310072 -1.0170445 -0.6417376 -0.023570236 -0.3847451 1.4425058
-0.5937496 -0.50137943 -0.36914337 -0.42425078 0.9239668 0.00029994597 0.60077447 0.55964655
-0.40699568 0.87656265 0.8560877 1.9693103 0.6083143 0.5521533 -0.93148863 0.09175268
-1.6992517 0.36010697 0.2966882 0.33946475 -0.89211977 0.037348285 0.44334513 0.35626116
-0.1539766 0.73031676 0.047409277 -0.22251758 -1.6035494 0.34230304 0.34353852 -0.33879778
0.057679277 1.356296 -0.06448324 -0.5646837 -0.8123261 -0.13723749 -1.1115099 0.23456998
-0.44201025 0.44744653 0.19858617 0.18009154 0.27736646 -0.29673618 0.81875813 1.5141168
0.5602307 0.41120318 -0.09708501 -0.090182915 -0.04410724 -1.2595494 -0.2924524 0.3553218
1.2815453 -0.8223429 -0.7680003 -1.4705447 -1.368913 0.14602086 -1.2741643 -0.6024117
-0.19317535 0.07908056 0.85101223 -1.314536 -0.9817132 0.3616036 -0.14918104 -0.8719618
0.2376282 -0.012452714 -1.1980784 -1.2647605 -0.75003666 0.30900493 -1.5271739 -0.8568639
0.052357424 0.5351627 -0.5698843 0.20561203 1.4189844 -0.71668303 -0.29812586 0.6895503
-0.21283714 -0.03844585 -1.0933157 0.32777917 -0.04362301 0.52513236 -0.13717712 0.8610136
1.1591798 0.5410759 0.80636096 0.6270789 -0.5465046 0.54033846 0.689014 1.3022541
-0.64147574 0.68784726 0.69633 -0.5380682 -1.0979744 -0.28262848 1.1375055 1.402877
1.5014266 0.85031694 0.5766388 1.3241526 -0.012306389 0.20009717 0.4947436 1.1461641
0.74238616 -0.12657696 -0.21282782 -0.62053585 0.5215941 -1.0284864 0.9822616 1.3085489
0.8384767 1.3637428 0.33868057 -0.21457629 0.543535 0.27080044 -0.7592506 -1.3236276
1.3678641 0.22919287 0.399366 0.2641652 0.13275921 0.33911604 -0.70110345 -0.10280805
-0.21572734 0.6381355 0.6404922 -0.3511894 -1.0060605 -0.33101928 0.84189737 -0.24725722
00000000: 6362 a93f 706f 253f 25df 923d cb6a 8fbf
00000010: a8aa 90be e4b2 8fbe 0aa4 9bbf 690a 713e
00000020: 9ac4 ae3f ab76 0740 30b3 37bf 3a55 f93e
00000030: 8779 54bf 2ae4 ab3f 1dec 86bf 4724 543f
00000040: b5c7 023f 1fab 64be cc17 afbd 7d8b cb3e
00000050: 102d 543d 634c b7be 5907 7f3a aab6 3bc0
00000060: 3946 9fbe afe8 a73f 4ba5 843f adb8 78bf
00000070: 810f 7d3f 97fb 19bf 4841 14bf 1e57 203f
00000080: 2d39 1bbe 070b 35bf f480 62bf ffb8 a63e
00000090: c057 61bf 3e66 853e 7cbf 5f3f 8a2f c2bf
000000a0: 1e01 62bf b97a 1abf b423 c13e 8f48 1cbf
000000b0: 7d6b 733e 6b82 a4be 9221 87bf c08d 203f
000000c0: f105 023f d77f a93f 7d6c 33bf a64f 423f
000000d0: 0656 bb3e e37d aebe 1e7c 5b3f b933 1c3f
000000e0: be60 b4be e680 3dbf b67b 7bbf f584 d0bd
000000f0: 06da 043e d5f0 68bd cf77 8bbf b992 fabd
00000100: 4dcc 30bf 12de bc3c 4f95 603d 49ef d03e
00000110: fbd3 a8bc 0191 ddbf b161 4e3f c753 123f
00000120: 3341 35bf 149a e8be 8b78 80bf f7c0 873e
00000130: 1d61 94be 4e16 52be 83bc d6bf a775 513f
00000140: 0e77 8ebf b2ae 7cbf d118 233e b663 d23e
00000150: 13e3 e13f a974 e93e 0c8f 173c bc39 d6bf
00000160: 6561 10bf f9ef 4c3f a01a 35bf 77e3 e43f
00000170: 83ad 16bf 7aed 48be 4b36 183d 8c9a 64bf
00000180: 455e 47bf 8b56 a6be 0bf8 83bf 842e 82bf
00000190: ea48 24bf 5e16 c1bc 4ffd c4be 08a4 b83f
000001a0: f9ff 17bf 675a 00bf 5c00 bdbe 6637 d9be
000001b0: 1789 6c3f 1142 9d39 5bcc 193f ff44 0f3f
000001c0: bd61 d0be 6966 603f 9028 5b3f 5c12 fc3f
000001d0: 7cba 1b3f eb59 0d3f 0a76 6ebf d4e8 bb3d
000001e0: 1481 d9bf f15f b83e 84e7 973e 53ce ad3e
000001f0: f661 64bf 84fa 183d 22fe e23e dd67 b63e
00000200: 0bac 1dbe 0af6 3a3f 3b30 423d a6db 63be
00000210: 1b41 cdbf 5842 af3e 48e4 af3e e776 adbe
00000220: 1b41 6c3d 1b9b ad3f ca0f 84bd 1c8f 10bf
00000230: 9af4 4fbf fc87 0cbe f545 8ebf 1d33 703e
00000240: 2b4f e2be b617 e53e 2c5a 4b3e eb69 383e
00000250: fa02 8e3e ceed 97be 229a 513f 94ce c13f
00000260: 476b 0f3f 3989 d23e 81d4 c6bd d2b1 b8bd
00000270: cba9 34bd ea38 a1bf 52bc 95be bdec b53e
00000280: ad09 a43f 1085 52bf ab9b 44bf cf3a bcbf
00000290: 8b38 afbf 7e86 153e d117 a3bf a737 1abf
000002a0: c2cf 45be fdf4 a13d f0db 593f b742 a8bf
000002b0: 8e51 7bbf 1b24 b93e eac2 18be e338 5fbf
000002c0: cf54 733e 7806 4cbc a25a 99bf ace3 a1bf
000002d0: 6702 40bf e535 9e3e 6f7a c3bf 6f5b 5bbf
000002e0: bd74 563d 6c00 093f f0e3 11bf f68b 523e
000002f0: 48a1 b53f 8a78 37bf f4a3 98be 5e86 303f
00000300: fbf1 59be 6579 1dbd c5f1 8bbf acd2 a73e
00000310: 0bae 32bd 136f 063f 2978 0cbe 636b 5c3f
00000320: 0160 943f f383 0a3f ac6d 4e3f 3e88 203f
00000330: bae7 0bbf 9f53 0a3f 3963 303f 43b0 a63f
00000340: c137 24bf c216 303f af42 323f d6be 09bf
00000350: 6d8a 8cbf aeb4 90be c899 913f 7991 b33f
00000360: bf2e c03f 5fae 593f 9a9e 133f d57d a93f
00000370: bda0 49bc 46e6 4c3e 084f fd3e 81b5 923f
00000380: 050d 3e3f 649d 01be 89ef 59be 70db 1ebf
00000390: 3187 053f 71a5 83bf 7f75 7b3f 887e a73f
000003a0: 69a6 563f 208f ae3f 8a67 ad3e e3b9 5bbe
000003b0: 1c25 0b3f 5ba6 8a3e 3f5e 42bf a16c a9bf
000003c0: 2c16 af3f 89b1 6a3e b379 cc3e a940 873e
000003d0: 08f2 073e 9ea0 ad3e 847b 33bf 078d d2bd
000003e0: a1e7 5cbe d95c 233f 4cf7 233f 19cf b3be
000003f0: 97c6 80bf 5c7b a9be 9686 573f ff30 7dbe

transformer.h.0.ln_1.weight f4 [64]
0.8780292 0.79846084 0.8339273 0.79522854 0.7297502 0.82709384 0.77885777 0.8608446
0.7997587 0.66974676 0.73059505 0.8241297 0.83595955 0.81209254 0.8026327 0.8786841
0.69643646 0.7727983 0.775322 0.7963776 0.7455144 0.75315756 0.8647608 0.6633149
0.86327803 0.8260519 0.8783351 0.71082014 0.7743925 1.0079908 0.80734354 0.8966727
0.8163419 0.94137985 0.80939215 0.7428717 0.7516516 0.87193155 0.9126231 0.7426838
0.7456323 0.93216425 0.918868 0.8412497 0.815639 0.94538534 0.7436594 0.74213094
0.85866433 0.64153373 0.8221159 0.73880905 0.77209264 0.8413766 0.85562575 0.7652134
0.8606623 0.846377 0.9501154 0.8137862 0.812831 1.0104028 0.781953 0.8668352
00000000: 86c6 603f ee67 4c3f 427c 553f 1994 4b3f
00000010: e9d0 3a3f 6cbc 533f 3963 473f 5060 5c3f
00000020: fcbc 4c3f 8674 2b3f 4708 3b3f 2afa 523f
00000030: 7201 563f 4ce5 4f3f 5679 4d3f 71f1 603f
00000040: a949 323f 1cd6 453f 817b 463f 67df 4b3f
00000050: 08da 3e3f efce 403f f760 5d3f 01cf 293f
00000060: caff 5c3f 2378 533f 92da 603f 4ff8 353f
00000070: 963e 463f d805 813f 11ae 4e3f 588c 653f
00000080: c8fb 503f 45fe 703f 5334 4f3f d72c 3e3f
00000090: 3d6c 403f e836 5f3f aba1 693f 8720 3e3f
000000a0: c2e1 3e3f 51a2 6e3f ef3a 6b3f 245c 573f
000000b0: b8cd 503f c604 723f 7660 3e3f 4bfc 3d3f
000000c0: 6dd1 5b3f 8e3b 243f 3076 523f 9722 3d3f
000000d0: dda7 453f 7564 573f 4a0a 5b3f 06e5 433f
000000e0: 5d54 5c3f 2aac 583f c33a 733f 4b54 503f
000000f0: b115 503f e154 813f 122e 483f e9e8 5d3f

transformer.h.0.ln_1.bias f4 [64]
-0.038720757 -0.05255399 0.13944903 0.0028046325 0.13862333 -0.10295631 0.02289758 -0.15468335
-0.09104471 -0.02435961 -0.01829575 -0.009829527 0.16020377 -0.08931526 0.08571694 -0.20173335
-0.07858903 -0.19595842 0.126436 -0.03363959 -0.17331338 -0.03473273 0.109034464 0.07929024
-0.23262095 -0.22114758 -0.09599925 -0.08615455 -0.040524498 0.06390045 0.057291638 0.12819433
-0.06284962 0.08627068 0.12596229 0.16583051 0.13280065 0.11056342 0.05282088 -0.07308807
0.15850364 0.027126076 -0.023087615 0.1438581 -0.097692415 -0.07629903 0.026810622 -0.063144125
-0.052136824 -0.30423757 -0.047112126 0.103123225 0.053400777 0.014095714 0.13624476 0.06547889
0.22860068 -0.03723613 0.00561638 -0.01825009 -0.0059483815 0.058362965 -0.017529482 -0.02795339
00000000: a899 1ebd da42 57bd bacb 0e3e edcd 373b
00000010: 46f3 0d3e c2da d2bd b593 bb3c 5065 1ebe
00000020: a675 babd ce8d c7bc f8e0 95bc 060c 21bc
00000030: 750c 243e ebea b6bd 5d8c af3d 3093 4ebe
00000040: 49f3 a0bd 53a9 48be 7078 013e abc9 09bd
00000050: 1079 31be e843 0ebd 764d df3d ec62 a23d
00000060: 3034 6ebe 8374 62be 419b c4bd cc71 b0bd
00000070: 04fd 25bd 3dde 823d a3aa 6a3d 6045 033e
00000080: 4db7 80bd afae b03d 42fc 003e 79cf 293e
00000090: e5fc 073e 136f e23d b55a 583d 33af 95bd
000000a0: c74e 223e 8137 de3c 3d22 bdbc 8a4f 133e
000000b0: f612 c8bd aa42 9cbd f3a1 db3c b551 81bd
000000c0: 6c8d 55bd 07c5 9bbe a5f8 40bd 4532 d33d
000000d0: c6ba 5a3d b6f1 663c bf83 0b3e cc19 863d
000000e0: 4c16 6a3e ea84 18bd 9c09 b83b 3681 95bc
000000f0: a4ea c2bb 010e 6f3d fd99 8fbc 82fe e4bc

transformer.h.0.attn.bias f4 [1, 1, 17, 17]
1.0 0.0 0.0 0.0 0.0 0.0 0.0 0.0
0.0 0.0 0.0 0.0 0.0 0.0 0.0 0.0
0.0 1.0 1.0 0.0 0.0 0.0 0.0 0.0
0.0 0.0 0.0 0.0 0.0 0.0 0.0 0.0
0.0 0.0 1.0 1.0 1.0 0.0 0.0 0.0
0.0 0.0 0.0 0.0 0.0 0.0 0.0 0.0
0.0 0.0 0.0 1.0 1.0 1.0 1.0 0.0
0.0 0.0 0.0 0.0 0.0 0.0 0.0 0.0
0.0 0.0 0.0 0.0 1.0 1.0 1.0 1.0
1.0 0.0 0.0 0.0 0.0 0.0 0.0 0.0
0.0 0.0 0.0 0.0 0.0 1.0 1.0 1.0
1.0 1.0 1.0 0.0 0.0 0.0 0.0 0.0
0.0 0.0 0.0 0.0 0.0 0.0 1.0 1.0
1.0 1.0 1.0 1.0 1.0 0.0 0.0 0.0
0.0 0.0 0.0 0.0 0.0 0.0 0.0 1.0
1.0 1.0 1.0 1.0 1.0 1.0 1.0 0.0
0.0 0.0 0.0 0.0 0.0 0.0 0.0 0.0
1.0 1.0 1.0 1.0 1.0 1.0 1.0 1.0
1.0 0.0 0.0 0.0 0.0 0.0 0.0 0.0
0.0 1.0 1.0 1.0 1.0 1.0 1.0 1.0
1.0 1.0 1.0 0.0 0.0 0.0 0.0 0.0
0.0 0.0 1.0 1.0 1.0 1.0 1.0 1.0
1.0 1.0 1.0 1.0 1.0 0.0 0.0 0.0
0.0 0.0 0.0 1.0 1.0 1.0 1.0 1.0
1.0 1.0 1.0 1.0 1.0 1.0 1.0 0.0
0.0 0.0 0.0 0.0 1.0 1.0 1.0 1.0
1.0 1.0 1.0 1.0 1.0 1.0 1.0 1.0
1.0 0.0 0.0 0.0 0.0 1.0 1.0 1.0
1.0 1.0 1.0 1.0 1.0 1.0 1.0 1.0
1.0 1.0 1.0 0.0 0.0 0.0 1.0 1.0
1.0 1.0 1.0 1.0 1.0 1.0 1.0 1.0
1.0 1.0 1.0 1.0 1.0 0.0 0.0 1.0
00000000: 0000 803f 0000 0000 0000 0000 0000 0000
00000010: 0000 0000 0000 0000 0000 0000 0000 0000
00000020: 0000 0000 0000 0000 0000 0000 0000 0000
00000030: 0000 0000 0000 0000 0000 0000 0000 0000
00000040: 0000 0000 0000 803f 0000 803f 0000 0000
00000050: 0000 0000 0000 0000 0000 0000 0000 0000
00000060: 0000 0000 0000 0000 0000 0000 0000 0000
00000070: 0000 0000 0000 0000 0000 0000 0000 0000
00000080: 0000 0000 0000 0000 0000 803f 0000 803f
00000090: 0000 803f 0000 0000 0000 0000 0000 0000
000000a0: 0000 0000 0000 0000 0000 0000 0000 0000
000000b0: 0000 0000 0000 0000 0000 0000 0000 0000
000000c0: 0000 0000 0000 0000 0000 0000 0000 803f
000000d0: 0000 803f 0000 803f 0000 803f 0000 0000
000000e0: 0000 0000 0000 0000 0000 0000 0000 0000
000000f0: 0000 0000 0000 0000 0000 0000 0000 0000
00000100: 0000 0000 0000 0000 0000 0000 0000 0000
00000110: 0000 803f 0000 803f 0000 803f 0000 803f
00000120: 0000 803f 0000 0000 0000 0000 0000 0000
00000130: 0000 0000 0000 0000 0000 0000 0000 0000
00000140: 0000 0000 0000 0000 0000 0000 0000 0000
00000150: 0000 0000 0000 803f 0000 803f 0000 803f
00000160: 0000 803f 0000 803f 0000 803f 0000 0000
00000170: 0000 0000 0000 0000 0000 0000 0000 0000
00000180: 0000 0000 0000 0000 0000 0000 0000 0000
00000190: 0000 0000 0000 0000 0000 803f 0000 803f
000001a0: 0000 803f 0000 803f 0000 803f 0000 803f
000001b0: 0000 803f 0000 0000 0000 0000 0000 0000
000001c0: 0000 0000 0000 0000 0000 0000 0000 0000
000001d0: 0000 0000 0000 0000 0000 0000 0000 803f
000001e0: 0000 803f 0000 803f 0000 803f 0000 803f
000001f0: 0000 803f 0000 803f 0000 803f 0000 0000
00000200: 0000 0000 0000 0000 0000 0000 0000 0000
00000210: 0000 0000 0000 0000 0000 0000 0000 0000
00000220: 0000 803f 0000 803f 0000 803f 0000 803f
00000230: 0000 803f 0000 803f 0000 803f 0000 803f
00000240: 0000 803f 0000 0000 0000 0000 0000 0000
00000250: 0000 0000 0000 0000 0000 0000 0000 0000
00000260: 0000 0000 0000 803f 0000 803f 0000 803f
00000270: 0000 803f 0000 803f 0000 803f 0000 803f
00000280: 0000 803f 0000 803f 0000 803f 0000 0000
00000290: 0000 0000 0000 0000 0000 0000 0000 0000
000002a0: 0000 0000 0000 0000 0000 803f 0000 803f
000002b0: 0000 803f 0000 803f 0000 803f 0000 803f
000002c0: 0000 803f 0000 803f 0000 803f 0000 803f
000002d0: 0000 803f 0000 0000 0000 0000 0000 0000
000002e0: 0000 0000 0000 0000 0000 0000 0000 803f
000002f0: 0000 803f 0000 803f 0000 803f 0000 803f
00000300: 0000 803f 0000 803f 0000 803f 0000 803f
00000310: 0000 803f 0000 803f 0000 803f 0000 0000
00000320: 0000 0000 0000 0000 0000 0000 0000 0000
00000330: 0000 803f 0000 803f 0000 803f 0000 803f
00000340: 0000 803f 0000 803f 0000 803f 0000 803f
00000350: 0000 803f 0000 803f 0000 803f 0000 803f
00000360: 0000 803f 0000 0000 0000 0000 0000 0000
00000370: 0000 0000 0000 803f 0000 803f 0000 803f
00000380: 0000 803f 0000 803f 0000 803f 0000 803f
00000390: 0000 803f 0000 803f 0000 803f 0000 803f
000003a0: 0000 803f 0000 803f 0000 803f 0000 0000
000003b0: 0000 0000 0000 0000 0000 803f 0000 803f
000003c0: 0000 803f 0000 803f 0000 803f 0000 803f
000003d0: 0000 803f 0000 803f 0000 803f 0000 803f
000003e0: 0000 803f 0000 803f 0000 803f 0000 803f
000003f0: 0000 803f 0000 0000 0000 0000 0000 803f

transformer.h.0.attn.c_attn.weight f4 [192, 64]
-0.13611126 0.012470896 -0.10364173 0.21140434 0.030015692 -0.04135894 0.34119812 -0.02148228
-0.03100406 -0.03587671 0.10653451 -0.054822467 0.017665079 -0.076985285 0.09020898 -0.0435251
0.030829925 -0.1367349 -0.03600595 0.13718954 0.011284318 -0.021787738 0.004989713 0.017361829
0.07303329 0.113561906 -0.0030463643 -0.1541326 0.1746905 0.22127295 -0.23748273 -0.13460632
-0.1668668 -0.16838472 0.060860086 -0.051093534 0.021993518 -0.036501568 -0.078251764 -0.11247251
-0.06757289 -0.11901198 -0.011197237 0.11226902 0.06676615 -0.026562305 -0.027650846 0.09511953
-0.011318186 0.15478024 0.13820437 -0.029737355 0.15016778 -0.12725237 0.13111855 -0.0032000833
0.1818613 -0.13316241 -0.023154877 -0.00952412 -0.14275898 0.089575365 0.034260277 0.049565006
-0.11488331 0.032275997 0.025643693 0.04431369 -0.12356898 -0.12604807 0.084076025 -0.21453841
-0.07865035 -0.00037059264 -0.15763363 0.13669336 0.09279969 0.14624737 -0.08468642 -0.176255
-0.09323892 -0.2041401 -0.105197676 -0.04045013 0.110171996 -0.074282 -0.0659727 0.024430452
0.022921436 -0.2753253 0.040150665 -0.116821855 0.048599623 0.08359204 -0.20227957 -0.21721141
-0.11637416 0.03241178 -0.043870386 -0.03443315 -0.20498377 -0.13899915 0.033737674 -0.10087939
-0.21245614 0.2042403 -0.03211508 0.059175383 0.04549049 0.15989788 0.13525419 0.07947476
-0.025351236 -0.047301695 -0.16641743 0.14239597 0.038793925 0.28181705 -0.067943476 0.18338497
0.011081709 0.07720556 0.13825281 0.15341659 0.30181807 0.02985718 0.19425036 -0.011064867
0.12157861 -0.06834715 0.28307113 0.028154224 -0.039366946 -0.12860759 0.05172993 -0.17013688
0.14874734 0.17895924 -0.121137686 0.0240511 -0.037022345 0.020461604 -0.07930506 0.21607026
-0.050917238 -0.030966276 0.061946664 0.027692126 -0.13374718 -0.09571354 0.16866274 -0.11891952
0.106963724 -0.14594491 0.089172095 -0.024954349 0.109225385 -0.022820996 -0.054183166 0.0818338
0.13909732 -0.082403444 -0.12153185 -0.12860438 -0.048318677 0.12350684 0.022875307 -0.12380799
-0.016954921 0.2563151 0.29108608 -0.011943334 0.027790407 -0.12169412 0.07062889 -0.26728624
-0.057316497 -0.037696756 -0.05704772 -0.050938006 0.10833248 -0.114029 -0.0784093 0.07390729
-0.095526926 -0.06195416 0.30604172 0.07980745 0.06695234 -0.05984277 0.06695246 0.064104274
0.028154677 -0.0858717 -0.1647823 0.21289839 0.089075066 0.04565905 -0.06971209 -0.13599457
0.023651991 -0.12066833 -0.19069397 -0.03631644 0.10854078 0.06829694 0.13736318 0.07028636
-0.1604153 -0.11627468 -0.018125813 0.06340402 -0.07109418 -0.051297083 -0.033617426 0.0017824306
0.17354421 0.033284273 0.09230973 0.01238417 -0.054245926 0.18527812 -0.03340651 -0.106247336
-0.18379039 -0.10949624 0.015064752 -0.050537128 0.094770245 -0.21288769 0.08828407 0.035784237
0.18706046 0.057354465 -0.094620466 -0.10287616 0.020415273 0.13668367 0.050726786 0.12860659
0.003080492 -0.04113146 0.058763698 0.15119368 0.116326384 0.0088261105 0.12286525 -0.11492773
-0.11346835 0.0120336795 0.03695764 0.061962236 -0.20117748 -0.2949695 0.08892396 0.019605104
00000000: c060 0bbe bb52 4c3c 1e42 d4bd 617a 583e
00000010: 78e3 f53c fe67 29bd 85b1 ae3e 9bfb afbc
00000020: 3afc fdbc 75f3 12bd c42e da3d 868d 60bd
00000030: 5bb6 903c 76aa 9dbd 7cbf b83d 6047 32bd
00000040: 0a8f fc3c 3c04 0cbe fa7a 13bd 6a7b 0c3e
00000050: dce1 383c 337c b2bc bf80 a33b 653a 8e3c
00000060: 7a92 953d 2593 e83d 83a5 47bb f0d4 1dbe
00000070: 11e2 323e 6095 623e ac2e 73be 3dd6 09be
00000080: 21df 2abe 0b6d 2cbe 6d48 793d 7447 51bd
00000090: c02b b43c ab82 15bd 7642 a0bd fd57 e6bd
000000a0: a863 8abd 8ebc f3bd 9e74 37bc 4ded e53d
000000b0: b1bc 883d 3199 d9bc 0784 e2bc 07ce c23d
000000c0: ea6f 39bc b67e 1e3e 7285 0d3e c19b f3bc
000000d0: 95c5 193e 724e 02be f143 063e 7db8 51bb
000000e0: d939 3a3e ba5b 08be 4caf bdbc 0e0b 1cbc
000000f0: 692f 12be 4a73 b73d 8154 0c3d ad04 4b3d
00000100: f147 ebbd d633 043d b912 d23c 4682 353d
00000110: bc11 fdbd bf12 01be 0d30 ac3d f5af 5bbe
00000120: 6f13 a1bd 1a4c c2b9 b66a 21be 58f9 0b3e
00000130: c40d be3d dfc1 153e 1370 adbd 317c 34be
00000140: 0cf4 bebd 1a0a 51be e171 d7bd 09af 25bd
00000150: dba1 e13d 2921 98bd b21c 87bd 5f22 c83c
00000160: bcc5 bb3c 70f7 8cbe 0675 243d 4c40 efbd
00000170: 6610 473d 4e32 ab3d 6022 4fbe ab6c 5ebe
00000180: 9355 eebd 37c2 043d 6fb1 33bd c609 0dbd
00000190: 44e7 51be cb55 0ebe 8430 0a3d db99 cebd
000001a0: 1a8e 59be 5f24 513e 1a8b 03bd e361 723d
000001b0: 3c54 3a3d 45bc 233e 1380 0a3e aac3 a23d
000001c0: 65ad cfbc 6cbf 41bd 5569 2abe 40d0 113e
000001d0: 61e6 1e3d 534a 903e f325 8bbd 45c9 3b3e
000001e0: 0e90 353c f31d 9e3d 2592 0d3e 3d19 1d3e
000001f0: e687 9a3e 0b97 f43c 91e9 463e 6a49 35bc
00000200: 35fe f83d 97f9 8bbd b3ee 903e b0a3 e63c
00000210: 3c3f 21bd b5b1 03be c3e2 533d 5d38 2ebe
00000220: 3951 183e 1741 373e 0917 f8bd d006 c53c
00000230: bea4 17bd 189f a73c b16a a2bd 8641 5d3e
00000240: 988e 50bd fdac fdbc c9bb 7d3d 99da e23c
00000250: 05f5 08be 7605 c4bd edb5 2c3e 148c f3bd
00000260: cc0f db3d 9572 15be dc9f b63d 106d ccbc
00000270: 8fb1 df3d 19f3 babc 2bef 5dbd 7b98 a73d
00000280: 876f 0e3e 23c3 a8bd b1e5 f8bd deb0 03be
00000290: cee9 45bd 27f1 fc3d ff64 bb3c 0b8f fdbd
000002a0: 0ce5 8abc bc3b 833e 3c09 953e f9ad 43bc
000002b0: b5a8 e33c c43a f9bd e1a5 903d bed9 88be
000002c0: b4c4 6abd ea67 1abd dfaa 69bd 5fa4 50bd
000002d0: 6bdd dd3d 0988 e9bd 0e95 a0bd b55c 973d
000002e0: 9fa3 c3bd a5c3 7dbd 80b1 9c3e 1772 a33d
000002f0: 4f1e 893d b11d 75bd 5f1e 893d 1a49 833d
00000300: a3a4 e63c 80dd afbd b1bc 28be 0902 5a3e
00000310: fd6c b63d fc04 3b3d 36c5 8ebd 2942 0bbe
00000320: d2c1 c13c f520 f7bd 4845 43be 8cc0 14bd
00000330: a14a de3d 44df 8b3d efa8 0c3e 4cf2 8f3d
00000340: e943 24be 6b21 eebd 967c 94bc f8d9 813d
00000350: d399 91bd e41c 52bd 6db2 09bd 72a0 e93a
00000360: 93b5 313e 1755 083d e20c bd3d f9e6 4a3c
00000370: fa30 5ebd 8cb9 3d3e 44d5 08bd 3498 d9bd
00000380: 8c33 3cbe 913f e0bd 26d2 763c 0500 4fbd
00000390: e716 c23d 3bff 59be 47ce b43d 7e92 123d
000003a0: c78c 3f3e 84ec 6a3d 60c8 c1bd bcb0 d2bd
000003b0: ee3d a73c cef6 0b3e e4c6 4f3d 72b1 033e
000003c0: 14e2 493b 7679 28bd 34b2 703d 84d2 1a3e
000003d0: 873c ee3d 649b 103c c7a0 fb3d 3b5f ebbd
000003e0: 1862 e8bd e928 453c e560 173d 1dcc 7d3d
000003f0: 7801 4ebe 3e06 97be c41d b63d e29a a03c

transformer.h.0.attn.c_attn.bias f4 [192]
-0.12800723 -0.1723139 -0.18873143 -0.08962087 -0.03736139 -0.04966336 0.09237768 0.08312662
-0.05572615 0.063267365 -0.01908953 0.09728643 -0.1302658 -0.18383433 0.07700983 0.20445974
-0.17146078 0.18138029 0.090968534 -0.10120397 0.05792278 0.0513792 -0.024967141 0.09899463
-0.11804297 0.025032528 -0.016386334 0.07908741 0.05334878 -0.018371483 0.13096914 0.22154784
-0.07012267 0.086599186 -0.13352334 0.10784752 0.098971836 -0.011884652 -0.18269676 0.060538
0.032077815 -0.1287294 -0.110120706 0.057945345 -0.33897495 0.08412336 0.022476746 0.04380276
0.11950097 -0.033275235 0.23476124 -0.083628245 0.1543846 -0.12593444 0.06585136 -0.18206981
-0.2109233 -0.029520266 0.07821755 -0.043154817 0.17355178 -0.18232934 0.0006450107 0.09942049
0.07729665 0.056667898 -0.08480054 0.033064716 -0.031537257 -0.088650346 -0.0050309696 -0.086638294
0.07409529 -0.06773257 0.03662359 -0.053878367 0.07765469 0.09955792 -0.095985234 0.029771818
-0.09316372 0.039058518 0.0644984 -0.016578348 -0.09155328 -0.08738088 -0.0931122 0.0025925469
-0.03605895 -0.053224016 0.03658776 0.0067390255 -0.0362729 -0.016833542 0.020244189 -0.06548341
0.063306525 0.031746395 -0.03395059 0.02590882 -0.039178032 -0.038584568 0.09820662 0.084009476
0.08926075 -0.0894885 0.029759618 -0.024883151 -0.0005069635 0.0609643 -0.04399315 0.000506721
0.03853524 0.00717663 0.028702281 0.09158627 -0.0697158 -0.054380797 -0.062945776 -0.020835545
0.03189809 0.0037388953 -0.023796953 0.04251664 -0.06189706 0.068792135 -0.050095547 -0.05789455
-0.031590324 0.093150675 0.09879182 0.053494938 -0.09991768 -0.074155726 -0.008740152 -0.020043924
-0.059414778 0.09167362 -0.049192935 0.06939551 -0.035640474 -0.06637209 0.042507667 -0.085191466
0.0015054166 -0.09220787 -0.016232299 -0.044048823 -0.023479307 0.050418783 -0.09738398 -0.048766907
0.024543505 0.07842946 -0.10285778 -0.0034746153 0.102203615 0.041813366 -0.04996814 -0.10560225
0.0787043 -0.020812282 -0.0958451 0.061659794 -0.020425888 -0.019976288 0.0033714843 -0.006486911
-0.022708902 -0.07730526 0.024011057 -0.05784533 0.027732141 -0.002808426 -0.03391462 0.04256398
-0.06651753 0.047046382 -0.013001158 0.039438527 -0.104065165 -0.030586872 0.022283118 -0.015438738
-0.07714778 0.11926481 0.024963733 -0.058549482 -0.14207345 -0.10838869 0.009434674 -0.095118485
00000000: 5414 03be 0e73 30be d042 41be 268b b7bd
00000010: 4208 19bd cf6b 4bbd 8230 bd3d 4a3e aa3d
00000020: 1a41 64bd 5292 813d a561 9cbc 1c3e c73d
00000030: 6664 05be 113f 3cbe 54b7 9d3d e55d 513e
00000040: 6a93 2fbe c1bb 393e b64d ba3d 0744 cfbd
00000050: 7040 6d3d ff72 523d e487 ccbc b2bd ca3d
00000060: 83c0 f1bd 0411 cd3c a23c 86bc 94f8 a13d
00000070: 4084 5a3d cb7f 96bc c61c 063e 70dd 623e
00000080: 799c 8fbd ea5a b13d 58ba 08be 29df dc3d
00000090: bfb1 ca3d d8b7 42bc dc14 3bbe b2f6 773d
000000a0: 0764 033d a4d1 03be f786 e1bd 1958 6d3d
000000b0: 208e adbe de48 ac3d 2721 b83c 866a 333d
000000c0: edbc f43d 9d4b 08bd 4065 703e 4945 abbd
000000d0: ff16 1e3e f5f4 00be 14dd 863d 8270 3abe
000000e0: 47fc 57be 7cd4 f1bc 8630 a03d 1bc3 30bd
000000f0: 8fb7 313e 8bb4 3abe ef15 293a f89c cb3d
00000100: b54d 9e3d 991c 683d e8ab adbd de6e 073d
00000110: 362d 01bd 508e b5bd d5da a4bb 6b6f b1bd
00000120: 45bf 973d 60b7 8abd 9e02 163d 90af 5cbd
00000130: 6c09 9f3d 06e5 cb3d e893 c4bd 07e4 f33c
00000140: 9fcc bebd d3fb 1f3d bd17 843d 51cf 87bc
00000150: 4980 bbbd bff4 b2bd 9cb1 bebd b8e7 293b
00000160: 8db2 13bd 6d01 5abd 0cdd 153d 0bd3 dc3b
00000170: e492 14bd 7fe6 89bc 24d7 a53c 2b1c 86bd
00000180: daa6 813d 8208 023d c60f 0bbd bc3e d43c
00000190: 2579 20bd da0a 1ebd 8d20 c93d 290d ac3d
000001a0: 57ce b63d bf45 b7bd 71ca f33c c0d7 cbbc
000001b0: bfe5 04ba b4b5 793d 2932 34bd 78d5 043a
000001c0: 21d7 1d3d f029 eb3b 0c21 eb3c 9591 bb3d
000001d0: 28c7 8ebd 66be 5ebd b7e9 80bd 4eaf aabc
000001e0: 92a7 023d 4108 753b d4f1 c2bc ee25 2e3d
000001f0: c687 7dbd e4e2 8c3d fd30 4dbd d622 6dbd
00000200: db64 01bd c8c5 be3d 5e53 ca3d 821d 5b3d
00000210: a4a1 ccbd f5de 97bd db32 0fbc 2833 a4bc
00000220: e95c 73bd 61bf bb3d 887e 49bd 3c1f 8e3d
00000230: bffb 11bd 17ee 87bd 851c 2e3d dd78 aebd
00000240: 6651 c53a 7bd7 bcbd 99f9 84bc 8a6c 34bd
00000250: ad57 c0bc ed83 4e3d 4171 c7bd cfbf 47bd
00000260: 760f c93c a09f a03d 1aa7 d2bd 5fb6 63bb
00000270: 2150 d13d 7e44 2b3d 64ab 4cbd fe45 d8bd
00000280: b82f a13d 857e aabc 704a c4bd fb8e 7c3d
00000290: 3154 a7bc 50a5 a3bc 1ff4 5c3b 2790 d4bb
000002a0: 0508 babc 3852 9ebd d6b2 c43c 3aef 6cbd
000002b0: 842e e33c 920d 38bb 0eea 0abd 9157 2e3d
000002c0: 583a 88bd b5b3 403d cf02 55bc 4b8a 213d
000002d0: 1e20 d5bd 5291 fabc 168b b63c c3f2 7cbc
000002e0: a8ff 9dbd 1c41 f43d be80 cc3c 95d1 6fbd
000002f0: b47b 11be e4fa ddbd e493 1a3c 7bcd c2bd

transformer.h.0.attn.c_proj.weight f4 [64, 64]
0.087226264 0.11286056 -0.014068489 0.06217412 -0.13114226 -0.098126404 0.08440152 0.0139745055
-0.05691759 0.09132457 0.108772315 -0.004807385 0.11785118 0.13580069 0.009720509 0.06446246
-0.03157885 0.09365811 0.13689458 0.053683665 0.039491385 -0.13122565 -0.024486592 -0.047966268
0.037936866 0.034605123 -0.08507995 0.12438041 0.12824932 0.08370735 -0.08856773 -0.0004201379
0.0006606518 0.08035878 0.14740264 0.106432796 -0.105229355 -0.15326916 -0.088684276 -0.1454961
-0.07864082 0.01574397 0.29581115 -0.032912143 -0.11272523 0.13281122 -0.0847793 0.11306934
-0.0112012215 0.054951925 -0.13087256 -0.14763914 -0.022300562 0.1355611 0.09045632 -0.15151915
0.020528246 0.0011256643 -0.039201476 -0.1896978 0.027681064 -0.16318583 0.1354248 -0.025592977
0.11757592 -0.16480896 -0.0037013825 -0.24427252 -0.10258148 -0.014217316 -0.18185332 0.10391335
-0.04137537 0.115166545 0.12826243 0.13706611 0.24796456 -0.09084976 0.042577926 0.08191957
0.057436246 0.009265624 0.09356684 0.051504735 -0.14017448 -0.103981115 0.030349975 0.08187447
-0.02744957 -0.0013019122 -0.03206325 0.08020747 -0.1554327 -0.006603541 -0.07480563 -0.11812446
0.06848653 -0.015742367 -0.06409091 -0.28141204 -0.007684858 -0.004253467 -0.12545447 -0.0028014744
0.11341276 -0.04690973 -0.12879899 -0.051481318 -0.048124816 -0.033121523 -0.14261435 0.024158435
0.16392776 -0.01269533 0.022998337 -0.121689975 0.13063489 -0.14213498 0.02625698 -0.036048826
0.005617913 0.038014606 -0.053754378 0.019611558 -0.017042805 -0.09254559 -0.11386297 0.019370325
-0.07204281 -0.07941103 -0.0598196 -0.09133124 -0.12462268 -0.117912546 -0.04078851 0.04920235
0.003869609 -0.023481546 -0.043688044 0.090230234 -0.14695534 -0.15813155 -0.020128721 -0.00034801662
0.09970659 0.06537404 0.1292828 -0.16176754 -0.07200049 -0.08764454 0.039591186 -0.09671801
0.056669928 -0.05701436 0.0741586 -0.10571568 -0.035359424 -0.11395719 -0.032653812 0.008503721
-0.102656506 -0.00013945179 -0.087560676 0.11541779 0.07002444 -0.16989537 0.041420173 -0.06294596
-0.0055958144 -0.08884594 -0.10347456 0.06063637 0.20260102 -0.011689176 0.16570295 0.049590804
-0.039220717 -0.058811903 0.039664663 0.07358587 0.15993959 -0.002869917 -0.006277208 0.08282446
-0.027162476 0.033206798 -0.017544957 0.1330901 0.015824638 0.005953691 0.10827689 0.116001524
-0.04771428 0.009944919 0.07428536 0.047616895 -0.09532404 -0.037395503 0.08695558 0.2787177
0.020928962 -0.11324191 -0.08852373 0.0722736 0.18566434 0.011958502 -0.18969274 -0.046164747
-0.03677197 -0.09173227 -0.024143754 -0.021713993 -0.04163589 0.106251605 0.02702175 -0.19590835
0.06587711 -0.04879065 -0.009000717 -0.025388185 -0.12867069 -0.10823431 -0.14901114 -0.041810118
0.056175712 0.2782617 0.014898897 0.059707664 0.017795283 0.16854593 -0.16092879 0.075570956
-0.028582666 0.029115243 -0.04655073 0.05093334 0.06820228 0.09506552 0.13085099 -0.10816124
0.0954111 -0.06461708 0.032450926 -0.0036677308 -0.1814296 -0.053060543 -0.1363055 -0.014218736
0.02070033 0.23450443 -0.1183912 0.10785759 -0.038206607 0.102258004 0.06526315 0.123614535
00000000: afa3 b23d 7023 e73d 857f 66bc 4aaa 7e3d
00000010: 284a 06be 7ff6 c8bd b4da ac3d 53f5 643c
00000020: 6b22 69bd 6008 bb3d 05c4 de3d 4587 9dbb
00000030: f65b f13d 560f 0b3e c542 1f3c e504 843d
00000040: d358 01bd d3cf bf3d 182e 0c3e 67e3 5b3d
00000050: b8c1 213d 0460 06be 1b98 c8bc 4778 44bd
00000060: b063 1b3d 1abe 0d3d 663e aebd 28bb fe3d
00000070: ca53 033e c26e ab3d ff62 b5bd f445 dcb9
00000080: 982f 2d3a 2593 a43d b8f0 163e 70f9 d93d
00000090: 7d82 d7bd 97f2 1cbe 1aa0 b5bd eefc 14be
000000a0: 700e a1bd 80f9 803c 8f74 973e e2ce 06bd
000000b0: 7cdc e6bd aaff 073e c5a0 adbd e690 e73d
000000c0: 5485 37bc 4515 613d 7503 06be b72e 17be
000000d0: abaf b6bc 87d0 0a3e 2a41 b93d d627 1bbe
000000e0: da2a a83c 078b 933a ba91 20bd 2440 42be
000000f0: 66c3 e23c 301a 27be ccac 0a3e 5da8 d1bc
00000100: a5cb f03d aec3 28be e592 72bb 9322 7abe
00000110: 3d16 d2bd bfef 68bc c237 3abe 86d0 d43d
00000120: 3879 29bd 70dc eb3d 3a57 033e 0f5b 0c3e
00000130: 6cea 7d3e 700f babd 3166 2e3d 73c5 a73d
00000140: 4542 6b3d d8ce 173c f99f bf3d a1f6 523d
00000150: e689 0fbe 0df4 d4bd 83a0 f83c cdad a73d
00000160: ecdd e0bc eda4 aaba c154 03bd d043 a43d
00000170: c029 1fbe 8462 d8bb b233 99bd 3deb f1bd
00000180: aa42 8c3d 23f6 80bc 1842 83bd 3d15 90be
00000190: 43d1 fbbb ab60 8bbb 2377 00be f198 37bb
000001a0: f344 e83d 6b24 40bd e2e3 03be 13de 52bd
000001b0: 871e 45bd 6faa 07bd 7f09 12be e9e7 c53c
000001c0: aedc 273e 1300 50bc 0267 bc3c 9838 f9bd
000001d0: 27c5 053e d58b 11be e118 d73c efa7 13bd
000001e0: 7816 b83b 34b5 1b3d 8d2d 5cbd 6ba8 a03c
000001f0: 5a9d 8bbc 8b88 bdbd fd30 e9bd 84ae 9e3c
00000200: 2e8b 93bd 40a2 a2bd 6605 75bd e00b bbbd
00000210: 2d3a ffbd 227c f1bd da11 27bd 6788 493d
00000220: 4499 7d3b 5f5c c0bc 3cf2 32bd a1ca b83d
00000230: 767b 16be 3ded 21be fde4 a4bc 0076 b6b9
00000240: f832 cc3d d3e2 853d b662 043e 64a6 25be
00000250: fe74 93bd fb7e b3bd 5e2a 223d 1814 c6bd
00000260: ba1e 683d e487 69bd 77e0 973d 7681 d8bd
00000270: 0bd5 10bd 6362 e9bd 01c0 05bd 3153 0b3c
00000280: 933d d2bd ce39 12b9 0353 b3bd 2a60 ec3d
00000290: f968 8f3d 0df9 2dbe 33a8 293d d0e9 80bd
000002a0: 185d b7bb dcf4 b5bd 78ea d3bd d85d 783d
000002b0: a476 4f3e f583 3fbc 09ae 293e ba1f 4b3d
000002c0: e7a5 20bd c0e4 70bd 6a77 223d 30b4 963d
000002d0: 34c7 233e 3815 3cbb 0ab1 cdbb df9f a93d
000002e0: d783 debc da03 083d 71ba 8fbc c548 083e
000002f0: aca2 813c 2e17 c33b 46c0 dd3d 3592 ed3d
00000300: 0d70 43bd 03f0 223c ec22 983d ef09 433d
00000310: 4039 c3bd 072c 19bd c415 b23d 16b4 8e3e
00000320: 3773 ab3c 60eb e7bd ee4b b5bd 2e04 943d
00000330: cb1e 3e3e 98ed 433c d03e 42be 3f17 3dbd
00000340: 359e 16bd 21de bbbd 1fc9 c5bc 8be1 b1bc
00000350: 658a 2abd 719a d93d b85c dd3c 339c 48be
00000360: 94ea 863d b4d8 47bd be77 13bc e2fa cfbc
00000370: 40c2 03be f3a9 ddbd 6096 18be 1641 2bbd
00000380: 8118 663d 5178 8e3e 811a 743c 0690 743d
00000390: 6ac7 913c 4e97 2c3e 84ca 24be f2c4 9a3d
000003a0: 3226 eabc 1783 ee3c faab 3ebd 7a9f 503d
000003b0: a3ad 8b3d b6b1 c23d cdfd 053e a483 ddbd
000003c0: e566 c33d f655 84bd 43eb 043d 505e 70bb
000003d0: aec8 39be 0356 59bd ab93 0bbe b4f5 68bc
000003e0: bd93 a93c ee21 703e 1677 f2bd 71e4 dc3d
000003f0: 887e 1cbd a56c d13d b0a8 853d 9e29 fd3d

transformer.h.0.attn.c_proj.bias f4 [64]
-0.03331269 -0.05690587 -0.041672286 -0.11111586 0.02102128 0.05134325 -0.040260408 -0.1523828
-0.11622275 -0.07003866 -0.058707803 -0.062288117 0.03903404 -0.035030283 0.13192943 -0.016004033
0.11162603 0.06000767 0.13168848 0.04879208 0.08486305 0.009129019 0.03925437 -0.12876992
0.033330448 0.08107903 0.0310616 -0.045749187 0.09824981 0.0050593647 -0.02422435 0.0045354757
-0.13265975 0.0511122 -0.000521745 -0.05626271 0.053888932 0.07671253 -0.16544014 -0.032122027
0.0118694035 0.09657735 -0.10004161 -0.039106984 -0.028335758 -0.064733505 0.046986464 -0.0067326888
0.05011919 -0.021387886 -0.05835605 0.017238425 0.039259944 -0.029819772 0.107286796 0.013026019
-0.059270345 -0.010631978 0.11798615 -0.03111836 0.041245323 0.034139905 -0.104412265 -0.06287782
00000000: e372 08bd 2116 69bd 8fb0 2abd b690 e3bd
00000010: d234 ac3c 4d4d 523d 19e8 24bd 3d0a 1cbe
00000020: 3106 eebd 6e70 8fbd 9877 70bd d321 7fbd
00000030: 28e2 1f3d ea7b 0fbd 8218 073e e41a 83bc
00000040: 309c e43d 9aca 753d 58d9 063e 34da 473d
00000050: aecc ad3d e291 153c 31c9 203d 43dc 03be
00000060: 8285 083d c30c a63d e674 fe3c 8063 3bbd
00000070: 3237 c93d 07c9 a53b 2572 c6bc 549e 943b
00000080: f5d7 07be 075b 513d b7c5 08ba ba73 66bd
00000090: a4ba 5c3d 751b 9d3d 2469 29be 6392 03bd
000000a0: e377 423c 58ca c53d 9ee2 ccbd a52e 20bd
000000b0: 6420 e8bc 0093 84bd e174 403d e39d dcbb
000000c0: c849 4d3d a635 afbc c106 6fbd 9937 8d3c
000000d0: 09cf 203d 9848 f4bc 2eb9 db3d 156b 553c
000000e0: 76c5 72bd bf31 2ebc b9a2 f13d eeeb febc
000000f0: dbf0 283d 49d6 0b3d 19d6 d5bd 16c6 80bd

transformer.h.0.ln_2.weight f4 [64]
0.7087603 0.73960716 0.887601 0.81406343 0.71511155 0.7614767 0.8638746 0.7933072
0.7460789 0.6740106 0.79385513 0.7758095 0.8961317 0.79469764 0.6828174 0.682212
0.9006022 0.872968 0.79498214 0.74751943 1.0194646 0.7036268 0.8235551 0.70944935
0.94168043 0.9282578 0.8861042 0.6482207 0.76372004 0.89438707 0.84361064 0.82138765
0.8065148 0.807943 0.90701115 0.9135527 0.6944303 0.8002088 0.8405884 0.858182
0.79919726 0.76897603 0.6604776 0.78475624 0.7729417 0.8342192 0.7229905 0.7453435
0.8606267 0.72688395 0.7904913 0.67421657 0.86071825 0.74995935 0.69971186 0.8322337
1.0653462 0.8381948 0.87161356 0.7410347 0.7498406 0.8949689 0.872018 0.865444
00000000: 5171 353f e556 3d3f d239 633f 7666 503f
00000010: 8d11 373f 23f0 423f e326 5d3f 2e16 4b3f
00000020: 07ff 3e3f f58b 2c3f 173a 4b3f 749b 463f
00000030: e368 653f 4e71 4b3f 1fcd 2e3f 72a5 2e3f
00000040: de8d 663f d57a 5f3f f383 4b3f 6f5d 3f3f
00000050: d17d 823f e320 343f 82d4 523f 799e 353f
00000060: f811 713f 4ea2 6d3f bad7 623f cbf1 253f
00000070: 2883 433f 8df6 643f def6 573f 7646 523f
00000080: c177 4e3f 5ad5 4e3f e231 683f 97de 693f
00000090: 2fc6 313f 7cda 4c3f cd30 573f d1b1 5b3f
000000a0: 3198 4c3f 9ddb 443f 0f15 293f c9e5 483f
000000b0: 82df 453f 648f 553f e815 393f d5ce 3e3f
000000c0: 0852 5c3f 1115 3a3f a35d 4a3f 7599 2c3f
000000d0: 0858 5c3f 56fd 3f3f 5120 333f 450d 553f
000000e0: 445d 883f ef93 563f 1122 5f3f 73b4 3d3f
000000f0: 8ef5 3f3f af1c 653f 923c 5f3f bd8d 5d3f

transformer.h.0.ln_2.bias f4 [64]
-0.0961777 0.17367275 -0.2881835 -0.2296706 -0.022728078 0.20543082 -0.14184275 0.14171347
0.12178935 0.17988272 0.20896098 -0.043692194 -0.04661351 0.028280748 0.0428778 0.042842012
-0.0034575781 0.28361553 -0.055635486 0.10782062 0.36784735 0.14646956 0.01013993 0.15932657
0.20493664 0.275383 0.007246231 0.17234258 -0.07255215 -0.06822245 0.106504425 -0.14004296
-0.077475086 -0.05727899 -0.13481788 -0.24181192 0.060088567 -0.15570508 -0.1341989 0.08669467
0.09894681 0.030750297 -0.0627868 -0.033937383 -0.091841504 0.04230608 -0.010294402 0.09984215
0.09115212 0.25086552 0.028028248 -0.15836859 -0.08410264 -0.09177946 -0.26307008 -0.2097158
-0.3414065 0.0013487026 0.078277126 0.100544505 -0.22438794 -0.24517563 -0.15339682 -0.08397557
00000000: d0f8 c4bd 45d7 313e ca8c 93be c52e 6bbe
00000010: 3c30 babc 755c 523e 3a3f 11be 561d 113e
00000020: b26c f93d 2d33 383e def9 553e 96f6 32bd
00000030: cfed 3ebd 07ad e73c a2a0 2f3d 1b7b 2f3d
00000040: 8998 62bb 0e36 913e 09e2 63bd 0fd1 dc3d
00000050: 7d56 bc3e 1efc 153e f321 263c 8126 233e
00000060: e9da 513e 00ff 8c3e cb71 ed3b 937a 303e
00000070: 3996 94bd 36b8 8bbd fe1e da3d 6c67 0fbe
00000080: 42ab 9ebd 609d 6abd b30d 0abe 8b9d 77be
00000090: 6e1f 763d 2771 1fbe 706b 09be fa8c b13d
000000a0: a0a4 ca3d 0ce8 fb3c 5e96 80bd ed01 0bbd
000000b0: 6617 bcbd 2449 2d3d daa9 28bc 0b7a cc3d
000000c0: f6ad ba3d 7271 803e 7f9b e53c 602b 22be
000000d0: 013e acbd dff6 bbbd 1fb1 86be bdbf 56be
000000e0: d5cc aebe f3c6 b03a c24f a03d 47ea cd3d
000000f0: f4c5 65be 520f 7bbe 0e14 1dbe 62fb abbd

transformer.h.0.mlp.c_fc.weight f4 [256, 64]
-0.099568345 0.07245914 -0.065646276 -0.0070940373 -0.14225328 0.015333074 0.33300704 -0.02640208
-0.122702904 0.105344765 -0.10210328 0.25210023 0.070662305 -0.09075969 -0.19116637 -0.02698709
-0.124026634 -0.0050284606 0.035008345 -0.010023404 0.07063934 -0.049931034 0.12293587 -0.089710504
0.075617254 -0.13238288 -0.12543173 0.05375281 -0.049129117 -0.1574523 0.03983793 0.17328705
0.23259534 -0.16482237 0.060174692 0.040457003 0.1470747 0.17186555 0.06824921 -0.19826949
-0.018861473 -0.12338689 0.12763642 -0.2305517 -0.13836837 0.036948532 -0.10676971 -0.17228614
-0.05878503 0.076352574 -0.08219347 0.15497294 0.12499847 -0.055439282 -0.070096426 0.19304483
0.32985988 0.14625727 0.12898554 -0.09529817 0.026267137 0.090606555 0.0072948947 0.036389742
0.011871685 0.08328703 0.08903905 0.014810749 -0.10665527 -0.02808726 0.0010429712 0.08055094
0.08367489 0.04208519 -0.04404611 0.18451712 0.110979676 0.019225778 0.07170811 0.11307443
0.067735925 -0.082619324 -0.1005795 -0.045942724 -0.22846921 0.05667704 -0.14039306 0.057348404
-0.090819955 0.024804816 0.2628945 -0.08523712 -0.070588514 -0.028938983 -0.07756302 0.29667413
-0.004055447 -0.10953965 -0.22773284 0.029289195 0.090730935 0.010908243 0.08296358 -0.24149188
0.024255117 0.11509022 -0.03443502 0.07808858 -0.12313824 0.009011822 -0.059111636 -0.029247403
0.068038546 -0.16744885 -0.11015169 -0.077522084 0.20252815 0.07911818 -0.02159981 0.2417431
-0.014212372 0.06602142 0.11615227 -0.26492736 -0.12871797 0.13892722 -0.16701923 -0.10986651
0.10223909 -0.08147812 0.09690423 0.06440605 -0.22081226 0.03511891 0.05508674 -0.019688776
-0.08427231 -0.037612103 -0.00882917 0.2298013 0.00637081 -0.11138146 -0.07442685 0.04316575
0.1047934 -0.20477362 -0.083340615 -0.05869829 -0.070360914 -0.26789188 0.051105633 -0.1742474
-0.008251261 -0.034911107 -0.08294581 -0.08031919 0.025967415 0.14425197 -0.18746662 -0.0649034
-0.023029607 0.0050670747 0.02881518 -0.052093297 -0.18611214 0.028280592 0.25475913 -0.008055238
-0.0402035 0.026279433 0.06675442 -0.062859975 0.090105765 -0.047868278 0.29262757 0.14921421
-0.16783427 -0.10958178 -0.019230707 0.21032469 0.0022797408 -0.050412904 0.054343294 0.1492404
-0.13353063 -0.021511413 0.12288825 0.18468803 0.194527 0.10496039 0.23062563 0.12639044
-0.14334242 -0.17078619 0.062817976 0.05976021 0.014268725 -0.027692406 -0.041997895 0.10851457
0.13256614 -0.13412754 -0.03212026 0.0685514 0.06854252 0.12990485 -0.048973802 -0.077430524
-0.16938847 -0.007027534 -0.10535668 0.03065831 -0.29015103 -0.1009752 0.252409 -0.014651344
0.13316935 -0.117556065 0.08326668 -0.13244136 0.097025685 0.10150782 0.0013881733 0.1336452
0.17873147 -0.013679078 0.10854657 0.060556166 -0.0055868416 -0.1444416 -0.15385623 0.030362455
-0.2572068 0.11944313 0.15652867 -0.09838237 -0.095251635 -0.013651657 0.047470197 -0.15525858
0.06262199 -0.102422655 -0.07317735 0.051900458 -0.22679393 -0.08651797 -0.03187089 0.14401312
0.15094525 0.17559044 -0.07398257 -0.051489513 -0.16848777 0.23017476 -0.049317792 0.040051807
00000000: 7dea cbbd 7565 943d 8e71 86bd 1975 e8bb
00000010: d8aa 11be 9337 7b3c e67f aa3e 2d49 d8bc
00000020: a94b fbbd ffbe d73d 861b d1bd 4813 813e
00000030: 66b7 903d 37e0 b9bd 1ec1 43be 0814 ddbc
00000040: ad01 febd c9c5 a4bb e964 0f3d 3439 24bc
00000050: 5cab 903d 7c84 4cbd cdc5 fb3d 24ba b7bd
00000060: 38dd 9a3d 618f 07be 2d71 00be e82b 5c3d
00000070: 9d3b 49bd 2d3b 21be 192d 233d 2972 313e
00000080: 792d 6e3e 32c7 28be bd79 763d 3eb6 253d
00000090: c09a 163e 86fd 2f3e 3ec6 8b3d 2807 4bbe
000000a0: 6083 9abc 44b2 fcbd 1fb3 023e bf15 6cbe
000000b0: 70b0 0dbe 5857 173d 14aa dabd c76b 30be
000000c0: 92c8 70bd bd5e 9c3d 0d55 a8bd 3ab1 1e3e
000000d0: 33ff ff3d 4d14 63bd b78e 8fbd 8bad 453e
000000e0: 65e3 a83e 77c4 153e c914 043e b02b c3bd
000000f0: 2e2e d73c ee8f b93d 030a ef3b 690d 153d
00000100: 7581 423c 6492 aa3d 1b5a b63d c9a8 723c
00000110: 146e dabd 4117 e6bc 4eb4 883a e4f7 a43d
00000120: be5d ab3d 8561 2c3d b269 34bd 0ef2 3c3e
00000130: 5049 e33d 617f 9d3c b4db 923d 9193 e73d
00000140: 22b9 8a3d 5234 a9bd a0fc cdbd 702e 3cbd
00000150: d5f3 69be 2f26 683d 33c3 0fbe 29e6 6a3d
00000160: d0ff b9bd 7833 cb3c 1c9a 863e cd90 aebd
00000170: b690 90bd 7211 edbc 5cd9 9ebd ace5 973e
00000180: 8ee3 84bb 5356 e0bd cc32 69be e5ef ef3c
00000190: 24d1 b93d 7db8 323c cfe8 a93d a649 77be
000001a0: abb2 c63c 6cb4 eb3d bc0b 0dbd e8ec 9f3d
000001b0: e72f fcbd 52a6 133c 0b1f 72bd 4098 efbc
000001c0: cb57 8b3d b677 2bbe 3697 e1bd e6c3 9ebd
000001d0: 8a63 4f3e b608 a23d 16f2 b0bc 818b 773e
000001e0: 02db 68bc 3d36 873d 3ee1 ed3d 8fa4 87be
000001f0: a5ce 03be f042 0e3e 1707 2bbe b101 e1bd
00000200: ba62 d13d 00de a6bd ba75 c63d 52e7 833d
00000210: 9c1c 62be d9d8 0f3d a2a2 613d 5b4a a1bc
00000220: f696 acbd 260f 1abd 39a8 10bc 0851 6b3e
00000230: 3ac2 d03b f71b e4bd 1b6d 98bd 92ce 303d
00000240: ec9d d63d 2db0 51be 7cae aabd 9e6d 70bd
00000250: 6219 90bd 2029 89be 2454 513d e96d 32be
00000260: 4c30 07bc f3fe 0ebd 7edf a9bd 637e a4bd
00000270: 9eb9 d43c cab6 133e 40f7 3fbe 13ec 84bd
00000280: 96a8 bcbc b409 a63b d00d ec3c c85f 55bd
00000290: 2e94 3ebe b3ac e73c ca6f 823e 1efa 03bc
000002a0: 6dac 24bd f747 d73c 8bb6 883d bbbc 80bd
000002b0: 5f89 b83d 8711 44bd 48d3 953e 9ccb 183e
000002c0: bfdc 2bbe 6a6c e0bd b789 9dbc 5b5f 573e
000002d0: b467 153b c37d 4ebd 1397 5e3d 7ad2 183e
000002e0: 41bc 08be b438 b0bc d6ac fb3d dc1e 3d3e
000002f0: 1632 473e 79f5 d63d 2029 6c3e 7f6c 013e
00000300: 5bc8 12be 93e2 2ebe b6a6 803d 1fc7 743d
00000310: 5fc7 693c 2fdb e2bc fc05 2cbd e33c de3d
00000320: 6bbf 073e bb58 09be 8990 03bd ad64 8c3d
00000330: 0560 8c3d c705 053e c198 48bd e593 9ebd
00000340: 2c74 2dbe 3a47 e6bb 3ec5 d7bd 2327 fb3c
00000350: ad8e 94be 16cc cebd c13b 813e 310c 70bc
00000360: 8c5d 083e 3cc1 f0bd b987 aa3d b59e 07be
00000370: 67b5 c63d 55e3 cf3d 5ef3 b53a 4ada 083e
00000380: 6205 373e 361e 60bc aa4d de3d be09 783d
00000390: d311 b7bb 80e8 13be 7d8c 1dbe afba f83c
000003a0: 9cb0 83be 9a9e f43d 0d49 203e b27c c9bd
000003b0: 4a13 c3bd 33ab 5fbc 1c70 423d 1bfc 1ebe
000003c0: f53f 803d f8c2 d1bd 02de 95bd 9395 543d
000003d0: ab3c 68be 5530 b1bd 0d8b 02bd 2d78 133e
000003e0: 6491 1a3e fbcd 333e 2c84 97bd abe6 52bd
000003f0: 0f88 2cbe efb2 6b3e 7401 4abd 5d0d 243d
